services/ml-service/app/ml-models/TF4/tf4_wellness_model.tflite (tflite, 11872 bytes, 5 tensors)

arith.constant f4 [1, 32]
0	0xbe7cf38e	-0.24702284
1	0xbeaa2f9b	-0.33239445
2	0x3e44ad23	0.19206671
3	0x3ca0163c	0.019541852
4	0x3e067d0a	0.13133636
5	0xbe6f8ed1	-0.23394324
6	0x3da98cc4	0.08278802
7	0x3e8b2c80	0.27182388
8	0xbd022045	-0.031769056
9	0x3ed1184f	0.40838858
10	0xbd72c67e	-0.05927133
11	0xbe3d8606	-0.18508157
12	0x3d50f2a0	0.051012635
13	0xbe56b85e	-0.20968768
14	0x3cb6bab0	0.022305816
15	0x3e986216	0.29762334
16	0xbe537103	-0.2064858
17	0xbe8740b7	-0.2641656
18	0x3e3c6938	0.18399513
19	0xbdf2c054	-0.1185309
20	0xbd8e16dc	-0.06937954
21	0x3d1b31a8	0.037889153
22	0x3ec461d3	0.38355884
23	0x3e4ee94a	0.2020618
24	0x3ed0baf8	0.40767646
25	0xbec7d020	-0.39025974
26	0xbde55907	-0.11198621
27	0xbe930ae5	-0.2871925
28	0xbda1dd34	-0.07903519
29	0xbeb5abb1	-0.35482553
30	0xbec16a29	-0.37776306
31	0xbe035fd1	-0.1282952

arith.constant1 f4 [32, 64]
0	0xbd7498d8	-0.059716076
1	0xbe272a24	-0.16324669
2	0xbe6a691b	-0.22891657
3	0x3e1ccd61	0.15312721
4	0xbc9abcf8	-0.018888935
5	0xbce02198	-0.027359769
6	0xbe0258f0	-0.1272924
7	0x3d49832c	0.04919736
8	0x3e25a4b0	0.16176105
9	0xbd67fb13	-0.056635927
10	0xbe3604e7	-0.17775308
11	0x3e20801c	0.1567387
12	0x3d8fa763	0.07014348
13	0xbcb295d7	-0.021799965
14	0x3dd4b620	0.103863
15	0xbcea0542	-0.02856696
16	0xbe1ba920	-0.15201235
17	0x3e2a63b4	0.16639596
18	0xbc5354d9	-0.012898647
19	0xbe5d6195	-0.21619256
20	0xbdf1e70d	-0.118116476
21	0xbe85baec	-0.26119173
22	0xbddf2c3f	-0.10897111
23	0xbeb5abe4	-0.35482705
24	0xbe9f0443	-0.3105794
25	0x3e0214df	0.12703274
26	0x3e0253a2	0.12727216
27	0x3daa90f4	0.08328429
28	0xbd583364	-0.052783385
29	0x3e290024	0.1650396
30	0xbe87e171	-0.26539186
31	0x3e1817d0	0.14852834
32	0xbc1871b1	-0.00930445
33	0x3e1922aa	0.1495463
34	0xbdb41c02	-0.087944046
35	0xbd86c102	-0.06579782
36	0xbe932d5f	-0.28745553
37	0x3d2c677c	0.042090878
38	0xbcad8062	-0.021179382
39	0x3dd2af67	0.102873616
40	0xbe39c499	-0.18141402
41	0xbe401757	-0.18758903
42	0xbe8b60c7	-0.27222273
43	0x3e1fd5b8	0.15608871
44	0x3e26b904	0.16281515
45	0x3cec7b96	0.028867524
46	0xbe84bd80	-0.25925827
47	0x3cc79b6d	0.024366105
48	0x3e538564	0.20656353
49	0xbc711197	-0.014713666
50	0x3e40ef34	0.18841249
51	0x3e1296a4	0.14315277
52	0xbe561ad7	-0.20908676
53	0x3c54785e	0.012968151
54	0xbe50af20	-0.20379305
55	0xbe0f549f	-0.13997124
56	0x3d19f4cf	0.037586983
57	0xbe01e4b8	-0.12684906
58	0xbdf46990	-0.11934197
59	0x3e529389	0.20564093
60	0xbe9b29e0	-0.30305386
61	0xbe5dac98	-0.2164787
62	0x3c526d15	0.01284339
63	0x3d1c54f4	0.038166955
64	0x3e0df614	0.13863403
65	0x3cbd2500	0.023088932
66	0xbd9574c0	-0.07297659
67	0xbe06653c	-0.13124555
68	0xbe0d95e8	-0.13826716
69	0xbcd31be0	-0.025770128
70	0x3e23ee30	0.1600883
71	0xbce74680	-0.02823186
72	0xbe0a97d0	-0.13534474
73	0x3e255b58	0.16148126
74	0xbdc791b8	-0.097445905
75	0xbd2e2030	-0.042511165
76	0xbe7abee4	-0.24486881
77	0xbe1aac78	-0.15104854
78	0x3e0edc18	0.13951147
79	0xbe3ad070	-0.18243575
80	0x3e7b6654	0.24550754
81	0xbda0c050	-0.07849181
82	0xbcc463c0	-0.023973346
83	0xbe0bbee8	-0.13647044
84	0x3e2b658c	0.16737956
85	0x3e08aa94	0.1334632
86	0x3e52a820	0.20571947
87	0xbd6c7890	-0.057732165
88	0xbda71010	-0.081573606
89	0xbd8dcd60	-0.06923938
90	0x3dba8a98	0.09108466
91	0xbdf79ab8	-0.12090057
92	0xbe77d770	-0.24203277
93	0x3e722c9c	0.2364983
94	0xbcb284c0	-0.021791816
95	0xbe137ba4	-0.14402634
96	0xbe49e19c	-0.1971497
97	0xbe15cff0	-0.14630103
98	0x3e041a7c	0.12900728
99	0xbe47839c	-0.19483799
100	0x3e018a78	0.12650478
101	0x3dfb6b18	0.12276286
102	0xbdc4e2d8	-0.096135795
103	0xbd1193e0	-0.035541415
104	0x3db7cdc0	0.089747906
105	0x3e5a136c	0.21296471
106	0xbe3fa0fc	-0.18713754
107	0xbe0e5250	-0.13898587
108	0x3c968ee0	0.018378675
109	0x3d5b09d0	0.053476155
110	0x3cf33800	0.029689789
111	0xbdc87320	-0.09787583
112	0xbd0d8c40	-0.03455758
113	0x3def3f30	0.11681974
114	0x3e01c7ec	0.1267392
115	0xbe101af8	-0.14072788
116	0x3e43280c	0.19058245
117	0xbe65d05c	-0.22442764
118	0x3e610890	0.21975923
119	0xbe5522ac	-0.20814008
120	0x3e3296e0	0.17440367
121	0x3e6ae274	0.22937948
122	0x3e12e5d8	0.14345491
123	0xbe0108e8	-0.12601054
124	0x3ca006e0	0.019534528
125	0xbcf2b0e0	-0.029625356
126	0xbc8ef6c0	-0.017451644
127	0xbc796f80	-0.015224338
128	0x3e1e2cc2	0.15446761
129	0x3db6e150	0.08929694
130	0x3de13240	0.109959126
131	0x3e548e7c	0.20757478
132	0x3e885e82	0.26634604
133	0xbe95a868	-0.29230046
134	0x3e6fe5dc	0.23427528
135	0x3ef341db	0.4751118
136	0xbdd5e8f8	-0.10444826
137	0xbe3e4953	-0.18582658
138	0x3dc9a2f5	0.09845535
139	0xbe7ab5b6	-0.2448338
140	0x3e29b815	0.16574128
141	0x3e3bc6b5	0.1833752
142	0xbe4bfe4c	-0.19921225
143	0x3dc6f1b2	0.097140685
144	0x3cba7480	0.02276063
145	0x3da4675d	0.080275275
146	0xbe48a9e9	-0.19596066
147	0xbe6463f2	-0.22303751
148	0xbd900d10	-0.070337415
149	0x3e5a8065	0.21338041
150	0x3d97168b	0.073773466
151	0xbeaff2d9	-0.34364966
152	0x3d1891bb	0.037248354
153	0x3e6f9c1e	0.23399398
154	0xbe7e38a9	-0.24826302
155	0xbcb4f756	-0.022090595
156	0x3d875c8b	0.06609448
157	0x3dcd4418	0.100227535
158	0x3da50eed	0.080594875
159	0xbe4f891d	-0.20267148
160	0xbe04862d	-0.12941809
161	0xbdb797b8	-0.08964485
162	0x3f15e212	0.5854808
163	0xbd20442d	-0.039127517
164	0x3e702215	0.23450501
165	0x3cfe6076	0.031051856
166	0x3e133ba9	0.14378227
167	0x3d3a9d2e	0.045560054
168	0xbdae3841	-0.08506823
169	0x3f3c4132	0.7353698
170	0x3e1bf1dc	0.15228981
171	0x3e2d86f4	0.16946012
172	0xbdc278a0	-0.09495664
173	0x3df62c96	0.12020223
174	0x3d870844	0.065933734
175	0xbe0b5d79	-0.13609876
176	0x3db7e1c0	0.08978605
177	0xbcead064	-0.028663822
178	0x3d9d8128	0.0769065
179	0xbc43f151	-0.01195939
180	0x3db05cdf	0.08611464
181	0x3d3f2765	0.04666843
182	0xbe223296	-0.1583961
183	0xbdebd0ae	-0.11514412
184	0xbe33e8ec	-0.17569321
185	0x3e25d5cc	0.16194838
186	0x3ccaf526	0.024775099
187	0x3e07c9c0	0.13260555
188	0x3d1a8afc	0.037730202
189	0xbe527634	-0.20552903
190	0xbe88c8fd	-0.26715842
191	0xbe31a1b1	-0.17346837
192	0x3e5a29e5	0.21305044
193	0xbe6a1d8c	-0.22862834
194	0xbe431d98	-0.19054258
195	0xbd2caaa4	-0.042154923
196	0xbdeacf30	-0.11465299
197	0x3dd4a8ae	0.103837356
198	0xbe170204	-0.14746863
199	0xbd16d066	-0.036819838
200	0xbd8960b0	-0.06707895
201	0xbe648e46	-0.22319898
202	0xbebdca55	-0.3706843
203	0x3cd79dbb	0.026320329
204	0x3ce9e63c	0.028552167
205	0x3d666db1	0.056256954
206	0x3e1c448c	0.15260524
207	0xbd2453b9	-0.040118907
208	0x3e2d7388	0.16938603
209	0xbe2d1880	-0.16903877
210	0x3e4752c5	0.19465168
211	0xbe288f1f	-0.16460846
212	0x3e47032e	0.19434807
213	0x3ce3865b	0.027774027
214	0x3eb9fd0c	0.36325872
215	0xbe6ec5fb	-0.23317711
216	0x3e2a50cb	0.16632383
217	0x3c87c33c	0.016572587
218	0x3de6805d	0.11254952
219	0xbd537610	-0.051626265
220	0xbe0aa445	-0.13539226
221	0xbbab3c80	-0.005225718
222	0x3d8d12e6	0.0688837
223	0x3de74c1f	0.11293816
224	0xbdbdff61	-0.09277225
225	0xbe116735	-0.14199527
226	0x3f1a2e48	0.6022687
227	0x3e83bb8b	0.2572902
228	0x3d5b52aa	0.05354563
229	0xbe50863f	-0.20363711
230	0xbe859140	-0.2608738
231	0xbe1a6a41	-0.15079595
232	0xbe0e0dd9	-0.1387247
233	0x3ecd0684	0.40044034
234	0xbde3df02	-0.1112652
235	0x3d3728e0	0.044716716
236	0x3e6afcac	0.22947949
237	0xbd975076	-0.073883936
238	0xbe2d904c	-0.16949576
239	0x3e3375a5	0.17525347
240	0x3e3abcb4	0.18236047
241	0xbe0438eb	-0.12912337
242	0xbddfe940	-0.10933161
243	0xbe0fceb1	-0.1404369
244	0x3dec1a80	0.11528492
245	0x3d0a533f	0.033770796
246	0x3df8caf0	0.12148082
247	0x3e2b57f0	0.16732764
248	0xbe1e4bf8	-0.15458667
249	0xbe468f80	-0.19390678
250	0x3e8675bf	0.26261708
251	0xbe519907	-0.20468532
252	0x3d2fe2e4	0.04294099
253	0x3dd0c488	0.10193735
254	0x3da67019	0.0812685
255	0x3deeb422	0.11655451

sequential_3_1/dense_10_1/BiasAdd/ReadVariableOp f4 [32]
0	0xbdaef71d	-0.08543227
1	0x00000000	0.0
2	0xbc0dd3a7	-0.008656419
3	0xbd276059	-0.04086337
4	0xbe03b2ee	-0.12861225
5	0xbe3e4a38	-0.18583
6	0xbc0210c2	-0.007938566
7	0x3d794c76	0.060863934
8	0xbd59010e	-0.05297952
9	0xbce3169a	-0.027720738
10	0xbd308720	-0.043097615
11	0x3c13e500	0.009026766
12	0x390e7bad	0.00013588248
13	0xbcff1e72	-0.031142447
14	0x3d17099b	0.036874395
15	0x3d846200	0.064640045
16	0x3c0fe045	0.008781497
17	0xbccfa668	-0.025347903
18	0xbce0bbda	-0.027433325
19	0x00000000	0.0
20	0xbc9b51e1	-0.018959941
21	0x3d5dc25b	0.05414043
22	0xbcfa7a1b	-0.030575803
23	0xbcd1a3d3	-0.025590813
24	0xbcc365ab	-0.02385219
25	0xbca6c83a	-0.020359147
26	0xbdcb0c1b	-0.09914418
27	0x3c872ec7	0.016501797
28	0xbd1e72ae	-0.038683586
29	0xbd6cb1c6	-0.057786725
30	0xbd4414bc	-0.047871336
31	0xbcc490c1	-0.023994805

sequential_3_1/dense_9_1/BiasAdd/ReadVariableOp f4 [64]
0	0xbe454dea	-0.19268003
1	0x00000000	0.0
2	0xbc798312	-0.0152290035
3	0xbdef78cd	-0.11692963
4	0x3d065573	0.032796334
5	0xbd3cef4d	-0.046126653
6	0x00000000	0.0
7	0xbe177466	-0.14790496
8	0x00000000	0.0
9	0xbdf9bf7b	-0.12194725
10	0x3c1970e7	0.009365297
11	0xbd5f849f	-0.054569837
12	0xbd5888d2	-0.052864857
13	0x3d64d2fc	0.055865273
14	0x00000000	0.0
15	0x3d4d438f	0.050113257
16	0x00000000	0.0
17	0x3db3bf57	0.087767296
18	0x3d177c72	0.036983915
19	0xbd8bde3c	-0.06829497
20	0xbd325ce7	-0.04354563
21	0xbc45e876	-0.012079349
22	0x3e21ac12	0.15788296
23	0x3d23b6a9	0.03996912
24	0x3d1eec35	0.038799483
25	0xbc5cca08	-0.013475902
26	0x3e2ff9a6	0.17185077
27	0xbdbf1920	-0.09330964
28	0xbc28320b	-0.010265837
29	0x00000000	0.0
30	0x3cf89708	0.030345455
31	0xbcc32add	-0.02382415
32	0x3dc82413	0.097725056
33	0xbda22b87	-0.079184584
34	0xbe71ede3	-0.23625903
35	0xbc880e4c	-0.01660838
36	0xbe21011d	-0.15723081
37	0xbc892b8e	-0.016744401
38	0x3e64aec6	0.22332296
39	0x3db129f7	0.08650582
40	0xbe23806a	-0.15966955
41	0xbe4842ad	-0.19556685
42	0xbd5f96c6	-0.054587148
43	0x00000000	0.0
44	0x00000000	0.0
45	0xbd556351	-0.05209667
46	0xbe01f6c9	-0.12691797
47	0xbd49d7cd	-0.04927807
48	0x00000000	0.0
49	0x3da7edbd	0.08199642
50	0x00000000	0.0
51	0x3ab2087d	0.0013582852
52	0x3c4dbe79	0.012557619
53	0xbc6ff53f	-0.014645874
54	0x3c5a44ef	0.013322099
55	0xbc5ef09b	-0.0136071695
56	0x3d053985	0.032525558
57	0x00000000	0.0
58	0x3ca5c8d5	0.020237366
59	0xbbad8823	-0.00529577
60	0xbdec9c3b	-0.11553236
61	0x00000000	0.0
62	0x3c2574b2	0.010098623
63	0x3c145bdb	0.009055103

sequential_3_1/dense_9_1/MatMul f4 [64, 4]
0	0xbe620f7a	-0.22076216
1	0xbe9a2fef	-0.30114695
2	0x3ccf727c	0.025323145
3	0xbd96aa66	-0.0735672
4	0x3deff550	0.117167115
5	0xbdd2e510	-0.102975965
6	0xbe5d7fef	-0.21630834
7	0xbd4fb138	-0.05070612
8	0xbe4a2d16	-0.19743761
9	0x3d49658a	0.0491691
10	0x3bf2e896	0.0074129803
11	0xbe16dd3d	-0.14732833
12	0x3d8ff270	0.07028663
13	0xbed416c1	-0.4142361
14	0x3e4aef4e	0.1981785
15	0xbe8f8545	-0.28031364
16	0xbf1c5727	-0.61070484
17	0x3eb147b7	0.34625027
18	0x3db546a7	0.088513665
19	0x3e88fdd5	0.26756158
20	0x3e5da5eb	0.21645324
21	0x3ec6e733	0.38848266
22	0xbe1d99fb	-0.1539077
23	0xbe246ad5	-0.16056378
24	0xbdb44b38	-0.08803409
25	0x3d3e7760	0.046500564
26	0xbe0fc843	-0.14041238
27	0xbca0ae90	-0.019614488
28	0xbec8b21d	-0.3919839
29	0x3f05e504	0.52302575
30	0xbe45d82b	-0.19320743
31	0x3e6715ae	0.22566864
32	0xbe1694fa	-0.14705268
33	0x3cb10f00	0.021613598
34	0xbe5a46a6	-0.21316013
35	0xbd607c44	-0.05480601
36	0xbf2c7ad7	-0.6737494
37	0x3dfea966	0.12434654
38	0x3d7bd4c6	0.061482213
39	0xbd8702b0	-0.065923095
40	0x3f0ca621	0.5494099
41	0xbeae277c	-0.340145
42	0x3c12fa90	0.008970872
43	0x3d8be5c5	0.068309344
44	0x3e0984c6	0.13429555
45	0xbee9b487	-0.45645544
46	0xbce1487c	-0.027500384
47	0x3d8d033c	0.068853825
48	0xbecaf7b7	-0.39642116
49	0xbdf595c0	-0.11991453
50	0x3e317171	0.1732843
51	0x3e3da50a	0.18519989
52	0xbebcce18	-0.36875987
53	0x3eb915e4	0.36149514
54	0x3dd37ecd	0.1032692
55	0xbd8d92a0	-0.06912732
56	0xbd233640	-0.03984666
57	0xbe859f17	-0.26097938
58	0xbe266e91	-0.16253115
59	0xbe7b7728	-0.24557173
60	0xbec01d1d	-0.37522212
61	0x3d55847f	0.05212831
62	0xb8482310	-4.771637e-05
63	0x3e89ce5a	0.26915246
64	0xbe8b9345	-0.27260795
65	0x3e63bdc0	0.22240353
66	0xbe97e880	-0.2966957
67	0xbe89f0ba	-0.26941472
68	0x3ebc36a1	0.3676043
69	0x3e61e583	0.22060208
70	0xbde3d2ab	-0.11124166
71	0x3e26d792	0.16293171
72	0xbe8bb7c3	-0.27288637
73	0xbd25c5ff	-0.040472027
74	0x3bf95b21	0.0076097404
75	0x3e29bbf5	0.16575606
76	0x3edd5d5a	0.43235284
77	0xbca24704	-0.019809254
78	0x3d6855a5	0.056722302
79	0x3dea119b	0.11429139
80	0xbe338c6d	-0.17534037
81	0xbed577ea	-0.4169305
82	0xbdc5808b	-0.09643658
83	0x3dff5b0a	0.12468536
84	0xbdb0385b	-0.08604499
85	0x3eb844b1	0.35989907
86	0xbe38f3c6	-0.18061742
87	0x3eaefedb	0.34178814
88	0xbedb03f0	-0.42776442
89	0x3f0bebb4	0.5465653
90	0x3bf720d4	0.007541755
91	0x3e094004	0.13403326
92	0x3f12086d	0.57044107
93	0xbe8dba9a	-0.27681428
94	0x39f6ff32	0.00047110912
95	0x3e2ee38d	0.17078991
96	0xbe716763	-0.23574595
97	0x3ea89e87	0.32933447
98	0x3d78ec35	0.06077214
99	0x3e8c4921	0.27399543
100	0x3e1dba98	0.15403211
101	0xbea6cf01	-0.32579806
102	0x3e2d3382	0.1691418
103	0xbe8edf77	-0.27904865
104	0x3e8f5282	0.27992636
105	0xbd8ee076	-0.06976406
106	0xbde23028	-0.11044341
107	0x3d49f079	0.0493016
108	0xbca7593c	-0.020428292
109	0xbd81e0cc	-0.06341705
110	0x3bc2f4fa	0.0059496136
111	0x3bb90c8a	0.0056472467
112	0x3ecc81c4	0.39942753
113	0xbe955215	-0.29164186
114	0x3de2f25b	0.11081382
115	0xbe16b804	-0.14718634
116	0x3e8e736c	0.27822435
117	0xbdbe6bca	-0.09297903
118	0xbe885c14	-0.2663275
119	0xbe81426b	-0.25245985
120	0x3ed677ef	0.41888377
121	0xbeb89dda	-0.3605793
122	0x3da233a5	0.07920007
123	0x3d2ff1e4	0.042955294
124	0x3ee5f5e4	0.44914162
125	0x3d17ef19	0.037093256
126	0xbc9a6fba	-0.018852104
127	0x3e2aa2e9	0.16663708
128	0xbed1f64a	-0.41008216
129	0x3e9c84e1	0.3057013
130	0xbba10887	-0.0049143466
131	0x3e98e760	0.29864025
132	0x3e85eeed	0.26158848
133	0x3d910b77	0.07082265
134	0x3d320b5f	0.043467876
135	0x3d95d15b	0.07315322
136	0xbf48899e	-0.7833499
137	0x3f09b95d	0.53798467
138	0xbd79d484	-0.060993686
139	0x3e0e7544	0.13911921
140	0xbe860794	-0.26177657
141	0xbdaf7ca9	-0.08568699
142	0xbd6bb853	-0.057548832
143	0x3e378f9c	0.17925876
144	0xbd8d392c	-0.0689567
145	0xbc3c403a	-0.011489922
146	0x3d174bef	0.03693765
147	0xbe91ead5	-0.28499475
148	0xbde1a3e6	-0.11017589
149	0x3ded6966	0.11592369
150	0x3ce235f8	0.027613625
151	0xbe71d4db	-0.23616354
152	0xbe9fd29c	-0.3121537
153	0x3e8e2e93	0.27769908
154	0x3cd2029e	0.025636014
155	0xbe750a24	-0.2392965
156	0xbee768e8	-0.45197225
157	0x3ec74790	0.38921785
158	0x3c033808	0.008008964
159	0x3e783fcf	0.24243091
160	0xbe64ffef	-0.22363256
161	0x3d652450	0.055942833
162	0xbd44ef68	-0.048079878
163	0x3e0758fc	0.13217539
164	0xbf900b00	-1.1253357
165	0x3eaa36af	0.33244845
166	0xbe18f12a	-0.14935747
167	0x3e1fc8c2	0.15603927
168	0xbec8eada	-0.39241678
169	0x3d0b6258	0.034029335
170	0x3aad6823	0.0013229888
171	0x3e625acb	0.22104947
172	0xbcc55de0	-0.024092615
173	0x3e194c36	0.14970478
174	0xbe5bd1d0	-0.21466756
175	0xbe369be2	-0.17832902
176	0xbe624bce	-0.2209923
177	0x3ddeba78	0.1087541
178	0xbe72ea84	-0.23722273
179	0xbe566678	-0.20937526
180	0x3e694847	0.22781478
181	0x3ba072d1	0.0048964997
182	0x3e180645	0.14846142
183	0x3e4a7f95	0.19775231
184	0x3eb1c700	0.34722137
185	0xbef96b0a	-0.48714477
186	0x3e54c0c3	0.20776658
187	0x3e0e4b13	0.13895826
188	0x3e6895a8	0.2271334
189	0xbeb4355c	-0.3519696
190	0x3e8553c1	0.26040462
191	0xbb290a45	-0.0025793475
192	0xbdb3c9ca	-0.087787226
193	0x3e1e1c04	0.15440375
194	0xbc8fe260	-0.017563999
195	0xbe96256b	-0.29325423
196	0x3f1149c9	0.5675321
197	0xbe461334	-0.19343263
198	0xbe6196a1	-0.22030117
199	0x3e8170ab	0.2528127
200	0xbb57be00	-0.0032919645
201	0xbe507616	-0.20357546
202	0xbd4e41b4	-0.050355628
203	0xbe5737f6	-0.21017441
204	0xbe0c56c5	-0.13704975
205	0x3ee1af7c	0.44079196
206	0x3dd8ba07	0.10582357
207	0x3e626f2a	0.22112718
208	0x3eefbb57	0.46822616
209	0xbe0700bb	-0.13183872
210	0x3bab037f	0.0052189226
211	0x3c98064c	0.01855769
212	0xbe909235	-0.28236547
213	0x3e116dda	0.14202061
214	0x3c5d0d6d	0.0134919705
215	0xbd2ec145	-0.042664785
216	0xbeef17b3	-0.4669777
217	0x3e6ee707	0.23330317
218	0x3df12a7a	0.1177568
219	0xbd53f521	-0.051747445
220	0x3e02b16c	0.12762994
221	0x3e784fbf	0.2424917
222	0xbe7fb13a	-0.2496995
223	0xbdcc4abc	-0.09975192
224	0xbe47e706	-0.19521722
225	0xbe548bf3	-0.20756511
226	0xbc42a4e6	-0.011880135
227	0x3dce07a5	0.10060052
228	0xbda17356	-0.07883327
229	0x3d11f190	0.035630763
230	0xbe97a99e	-0.29621595
231	0x3d81c39c	0.06336138
232	0x3eca5955	0.3952128
233	0x3d88b738	0.06675571
234	0xbd7a708c	-0.06114249
235	0xbb6f1b41	-0.003648475
236	0xbc93af56	-0.018027943
237	0x3e86e38d	0.26345482
238	0xbe3e214b	-0.18567388
239	0xbd7ee603	-0.062231075
240	0xbee2f951	-0.44330838
241	0xbdce1f33	-0.100645445
242	0x3b279666	0.0025571822
243	0x3e01a8be	0.12662026
244	0xbd991de4	-0.07476404
245	0xbe8a5176	-0.27015275
246	0xbe2feba0	-0.17179728
247	0xbe0c269f	-0.13686608
248	0x3ecba611	0.39775136
249	0xbeb71d6c	-0.35764635
250	0xbca7f7ef	-0.020503966
251	0x3e2ca125	0.16858347
252	0xbea1e919	-0.31623152
253	0x3e88d4cd	0.26724854
254	0xbcb51e75	-0.02210925
255	0x3df11fa1	0.11773611
