services/ml-service/app/ml-models/TF3/tf3_context_model.tflite (tflite, 12072 bytes, 5 tensors)

arith.constant f4 [1, 32]
000000 fd 90 9a 3b 87 f6 9b be 90 fe 5c 3e 4c e6 02 be
       0.004716991 -0.30461523 0.21581483 -0.12783164
000010 28 9e ac be 7b 96 1a be 18 91 45 be e7 f9 c6 3d
       -0.33714414 -0.15096466 -0.1929363 0.09715634
000020 2d b4 07 bf b7 a7 d2 3e c2 b2 37 be 81 99 b6 be
       -0.530093 0.4114358 -0.17939284 -0.3566399
000030 cb 69 c3 bc e7 55 a8 be 53 bb d8 3e 17 9c a6 3d
       -0.023854157 -0.32878038 0.42330417 0.081352405
000040 80 5f ce 3d 98 40 83 be ad ec f9 3d cf 71 1f 3e
       0.10076809 -0.2563522 0.122033454 0.15570758
000050 0a 73 fb bd 21 91 c3 3e 13 d4 61 3b bc fe 9c be
       -0.12277801 0.38196662 0.0034458681 -0.30663097
000060 ff b4 14 be 20 68 14 be 27 84 95 bb e3 a8 ad be
       -0.1452217 -0.14492846 -0.004562873 -0.33917913
000070 c2 b2 53 be bf 35 95 3e 66 91 8c 3c 99 97 b0 bd
       -0.2067366 0.29142568 0.017159175 -0.08622665

arith.constant1 f4 [32, 64]
000000 74 23 f2 3c 43 5c 88 3e 7b 4d 99 bd 01 1f 3c be
       0.029557921 0.2663289 -0.07485481 -0.18371202
000010 22 5f 20 3c 3d 6c db 3d 11 c3 0e be de f0 47 be
       0.009788306 0.10714004 -0.139416 -0.19525477
000020 10 57 2c 3d be f4 da bb df a8 b4 bc c0 ce 72 be
       0.042075217 -0.0066820076 -0.02205318 -0.23711681
000030 23 36 7f 3d c7 ec 4c be 04 7b 2a bd 9d fa 21 be
       0.06230749 -0.20012198 -0.041621223 -0.15818258
000040 60 f6 5b be 14 81 36 be c1 21 4e 3e 73 10 be 3d
       -0.21480703 -0.17822677 0.20130064 0.09280481
000050 a4 88 8a 3d 06 10 4e 3e ba a7 40 be df 65 32 be
       0.067643434 0.201233 -0.18813983 -0.17421673
000060 9b 80 82 be d6 ea 95 be c6 f5 87 be 8f 0a 6b 3e
       -0.25488743 -0.29280728 -0.26554698 0.22953247
000070 33 df 0f 3e 9d eb 10 3d 9f 2d 09 3e f3 b0 29 bd
       0.14049987 0.03538095 0.1339631 -0.041428518
000080 09 22 2d bb e3 6a 86 bc 6e 28 9f bc aa 1b 19 be
       -0.0026417992 -0.01640839 -0.019428458 -0.14951959
000090 a8 64 2d be 92 1c 52 be d3 5b 2f 3e 7a 85 68 3d
       -0.16932929 -0.20518711 0.17124872 0.05676792
0000a0 67 b0 0d 3e 59 d1 17 3d 81 b5 4b be f4 6a 12 3e
       0.13836823 0.037064884 -0.19893457 0.14298612
0000b0 ea 31 1d 3e 69 88 25 3e cb 8e 87 3e 1e 6e dc 3a
       0.15351072 0.16165318 0.2647613 0.0016817485
0000c0 27 2a e0 3d 76 0b 0b 3c 30 3a c3 3d 78 95 86 3d
       0.1094554 0.008486619 0.09532583 0.06571478
0000d0 21 7c 86 be 2d 0f 5d 3d fd 64 dd 3d 92 8a 61 be
       -0.26266578 0.05396955 0.108102776 -0.22025517
0000e0 e1 2a 2a bd 67 b5 13 be 61 75 10 3c 9e 34 f9 bd
       -0.0415448 -0.14424668 0.008817048 -0.12168239
0000f0 90 b4 69 3e f7 d4 85 be c1 c7 9e be 13 33 81 bb
       0.22822785 -0.26139042 -0.31011775 -0.003942856
000100 78 8b 0a be 95 04 d4 3e b0 fe a1 be 43 c6 c9 be
       -0.13529766 0.41409746 -0.31639624 -0.39409074
000110 08 29 9d bd 0a 6b 61 be 41 a8 cc 3d 2e 59 81 3c
       -0.07673842 -0.22013488 0.099930294 0.015789595
000120 0c 75 6f 3e 34 94 61 be c2 1e a4 3e c0 12 8a 3d
       0.23384494 -0.22029191 0.32054716 0.067418575
000130 28 45 65 3e 80 ff 2b bd 2d 88 21 be 1a 9f 51 be
       0.22389662 -0.04199171 -0.15774603 -0.20470849
000140 c0 78 5b 3e e0 54 20 3d 36 74 40 be 4f e3 99 3e
       0.21432781 0.039143443 -0.18794331 0.30056235
000150 13 31 b0 bd 85 2a d8 bd 99 12 1c bd c4 b0 42 3d
       -0.0860311 -0.10554985 -0.038103674 0.047531858
000160 a3 b3 d4 3e e4 f3 e7 bd e4 43 9a 3d fa d9 f2 be
       0.41543302 -0.11325815 0.0753248 -0.47431928
000170 3c 4f 2e 3e 83 ec d0 3e aa 6e 7f 3d 89 8e b6 3c
       0.17022413 0.40805444 0.062361397 0.022284763
000180 78 1e 7a bf c9 d5 58 3e 49 2b 14 3e 9e 3c 80 3d
       -0.9770274 0.21175303 0.14469637 0.06261562
000190 c6 9d 0e 3e 47 4d 6d 3e 06 f7 a0 be 1c 1e 82 3e
       0.13927373 0.2317401 -0.31438464 0.25413597
0001a0 a4 26 44 bd 04 8f 37 be 01 f1 f6 bd 08 f0 b1 3d
       -0.047888413 -0.1792565 -0.120576866 0.086883605
0001b0 ff 06 e9 3d 1d 0f e6 bd 30 9e d3 bc 90 3d 89 be
       0.113782875 -0.112333514 -0.025832266 -0.2680478
0001c0 ed 89 8f be f9 8c 74 be 90 61 fc bc 16 c9 97 3e
       -0.28034917 -0.23881902 -0.03080824 0.29645604
0001d0 60 e7 36 bf 10 4e 88 bd 4b 31 05 bc e2 3d b9 3d
       -0.714468 -0.06655514 -0.008129428 0.09045006
0001e0 28 05 cc be fe ac e4 be 5c 26 19 3d 6f 72 3d be
       -0.39847684 -0.44663233 0.037390098 -0.18500684
0001f0 6d 19 01 be 94 ff 19 3e df f1 2b bd 30 73 51 bd
       -0.12607355 0.15038902 -0.041978713 -0.051135242
000200 08 1d 62 be a0 9d 13 3e b0 d2 aa 3d 10 96 1c bd
       -0.22081387 0.14415598 0.08340967 -0.03822905
000210 24 49 4e be fc 3d 52 be 74 4a 00 3e 40 91 f1 bc
       -0.20145088 -0.20531458 0.12528402 -0.029488206
000220 18 eb d7 bd e0 c3 a6 bd 00 92 fc bc 00 c1 96 3b
       -0.105428874 -0.08142829 -0.030831337 0.004600644
000230 08 f1 45 3e 50 34 4c be 40 53 6a 3d d0 60 20 3e
       0.19330227 -0.1994183 0.0572083 0.15661931
000240 cc a0 08 be 10 12 53 be 48 93 f8 3d 80 bd 3a bd
       -0.13342589 -0.20612359 0.12137467 -0.045590878
000250 80 1b b1 bb c0 62 4e bd 74 47 03 be 84 10 3d be
       -0.0054048896 -0.050387144 -0.12820226 -0.18463331
000260 e0 ce 92 3c 40 3e 23 3c 9c 61 29 3e 68 f2 47 3e
       0.017920911 0.009963572 0.16541141 0.19526064
000270 a0 67 13 bd c0 5e bb bc 8c 81 58 3e 00 dc 33 ba
       -0.035987496 -0.022872329 0.21143168 -0.00068610907
000280 88 e6 6d be 90 58 77 3d 18 cc 21 be 00 9a 5f be
       -0.23232472 0.060387194 -0.15800512 -0.2183609
000290 80 1b 3b be e0 9e 06 3e 4c 0e 1b 3e 00 14 ee 3b
       -0.18272209 0.13146544 0.15142173 0.007265568
0002a0 10 04 57 bd a4 08 09 3e f0 c3 50 3d 28 14 53 3e
       -0.05249411 0.13382202 0.05096811 0.20613158
0002b0 f8 62 cc bd bc ed 40 be d0 53 e0 bd 0c 53 55 be
       -0.09979814 -0.18840688 -0.10953486 -0.20832461
0002c0 60 c1 6d bd a8 de 29 3e 48 13 a2 3d e8 1f 51 be
       -0.058045745 0.16588843 0.07913834 -0.20422328
0002d0 3c 7f 2c 3e ec 15 48 3e e0 20 01 3e 38 56 2c 3e
       0.16845411 0.19539613 0.12610197 0.16829765
0002e0 80 6a f4 bb 84 5c 4e be dc 85 38 3e 38 24 2d be
       -0.007458985 -0.2015248 0.18019813 -0.16908348
0002f0 50 65 64 bd 88 3b 8e bd a0 2c f8 3d a0 81 21 be
       -0.05576068 -0.069449484 0.121178865 -0.15772104
000300 61 b5 47 3e ad da b4 3e 91 8c 58 3e 2d 21 6d 3e
       0.19502784 0.35323086 0.21147372 0.23157187
000310 76 53 c4 3d 9e 9f 29 3e 78 b3 37 bd 29 a2 01 bb
       0.095862314 0.16564795 -0.04484889 -0.0019780493
000320 38 78 57 be 86 be 6b 3d 47 20 52 3e 80 4c 60 bd
       -0.21041954 0.057554744 0.20520125 -0.054760456
000330 e2 bb 4c be eb 25 7b be 5b 7d 95 bd e8 30 ae bd
       -0.19993547 -0.24526183 -0.072993 -0.08505422
000340 34 4e 5d be bc c5 6e be 62 3d 5a be 46 a7 53 be
       -0.21611863 -0.23317617 -0.21312478 -0.20669279
000350 72 b5 99 bd d9 d8 34 3d b2 ed d2 be 6e ae 57 3e
       -0.07505311 0.044152115 -0.41196972 0.21062633
000360 47 fe bc 3d 4d e4 8d bd 9e 50 8a 3e b0 5c 9f be
       0.09228187 -0.069283105 0.2701463 -0.31125402
000370 3f c6 15 3e a3 ae 44 3d c9 61 85 bd e4 85 8f 3e
       0.14626406 0.04801811 -0.06512792 0.28031838
000380 5a ac df be 69 bb d8 bc 27 28 ec bd 65 b0 2d be
       -0.4368618 -0.026456552 -0.11531096 -0.1696182
000390 c1 73 20 be bf 51 88 3e d4 8c ea bc fd e5 ef bd
       -0.15669157 0.26624867 -0.028631605 -0.11713789
0003a0 bf 2f 3d be 67 30 7d be ce bc 5f 3e e8 64 82 bd
       -0.18475245 -0.24725495 0.21849367 -0.063669026
0003b0 32 16 f8 3a 23 d6 35 be 7b 79 da ba 0c 0d 07 3e
       0.0018927513 -0.17757468 -0.0016668284 0.1318857
0003c0 74 d9 4a 3e 64 aa 47 3e 3d dc 23 3e d4 03 d6 3d
       0.19809514 0.19498593 0.16001983 0.10449949
0003d0 8e 75 ca bd 88 35 0a bf 03 77 35 be d1 45 a4 3d
       -0.09885703 -0.5398793 -0.1772118 0.08021129
0003e0 0b f3 73 3d 34 dc 37 3d 6e e7 e4 3d 33 6d 58 bc
       0.059557956 0.044887736 0.11176954 -0.013209629
0003f0 7e 92 a1 3e 7a 73 d2 bd a3 6b 6a 3d 82 4d 90 bd
       0.31557077 -0.10275932 0.057231557 -0.070460334

arith.constant3 f4 [32]
000000 8a 62 16 bd a3 2d c7 3c 00 00 00 00 c1 0f c0 3c
       -0.036715068 0.024313753 0.0 0.023445012
000010 63 90 03 3e 86 a8 a1 3d 17 9f 28 bd 68 c4 02 3c
       0.12848048 0.078934714 -0.041167345 0.007981397
000020 21 d8 26 3e 44 8b fd bc c7 1e 2d 3e 28 f8 08 3e
       0.16293384 -0.030950196 0.16906272 0.13375914
000030 81 ad 0a 3e 00 00 00 00 60 73 2d 3d 8f ae 4f 3c
       0.13542749 0.0 0.04234636 0.012675895
000040 00 00 00 00 00 00 00 00 18 40 46 3d 8e a1 28 3d
       0.0 0.0 0.04840097 0.041169696
000050 a2 c0 19 3e 6d c3 8c 3d a8 53 e8 bc 42 6a 62 3d
       0.1501489 0.06873212 -0.028360203 0.055277117
000060 af 59 6b 3d d5 0c 1c 3e 54 06 05 be 6f cd f1 3d
       0.057458576 0.1523927 -0.12990695 0.118067615
000070 d5 b6 24 3e a9 ba fc 3c 1b ff b4 bd 31 80 23 3e
       0.1608537 0.030850725 -0.0883772 0.1596687

sequential_3_1/dense_12_1/BiasAdd/ReadVariableOp f4 [64]
000000 48 5e 00 3e 06 ad 54 bd aa 20 fb bc 05 d4 b3 bc
       0.12535965 -0.05192282 -0.030655224 -0.021951685
000010 10 ff 89 bd 58 62 9f ba 18 99 43 bd 3f 86 99 bc
       -0.067381024 -0.0012160046 -0.047753423 -0.018740771
000020 00 00 00 00 45 ea e8 bc 75 9c e7 3d 00 00 00 00
       0.0 -0.02843202 0.11309139 0.0
000030 13 05 9d bc a3 25 d4 3c f8 7b ea 3d ab 02 17 3e
       -0.019167459 0.025896853 0.114494264 0.14747111
000040 00 00 00 00 00 00 00 00 3d 99 35 3d 9c 99 04 3e
       0.0 0.0 0.044335593 0.12949222
000050 0d 4b e7 3d 76 b4 9e be ad 58 6b bb fe 3c d2 3d
       0.11293612 -0.30997056 -0.003591101 0.102655396
000060 47 47 dd bc e6 86 0d bc f4 a2 41 be 5e 19 3d 3e
       -0.027011527 -0.008638119 -0.18909818 0.18466708
000070 ef 6c 4e 3c 4c 2c c9 bd 5e fc ac 3d 6a 79 5b bd
       0.012599214 -0.09822902 0.08446573 -0.053582586
000080 79 26 d1 bc 4b 85 32 3d 7b 88 98 3c 7b c0 30 3e
       -0.02553104 0.04358415 0.018619766 0.17260925
000090 60 24 5b 3e 75 20 d5 3d 3a 77 54 3c 11 0f 33 bc
       0.21400595 0.10406581 0.012967879 -0.010928885
0000a0 fb 42 b4 bd 0a ae 8e 3d 9f 32 c6 bd 00 00 00 00
       -0.08801838 0.06966789 -0.09677624 0.0
0000b0 73 d4 92 bd 01 ca ac bc 40 1d 33 bd fe 60 08 3e
       -0.07169428 -0.021092417 -0.043729067 0.1331825
0000c0 6b d1 a5 bd 71 42 3a 3d 66 a6 b4 3c 59 62 d2 bb
       -0.08096584 0.04547352 0.022052001 -0.0064204154
0000d0 a8 66 fb bd 74 0d 1e bd 6f 02 bb bd 0e 29 a7 bd
       -0.122754395 -0.03858705 -0.091313235 -0.081621274
0000e0 5a 06 17 3e 78 8f d4 bd 19 bb 24 3e 0e f6 6a bd
       0.14748517 -0.10378927 0.16086997 -0.057363562
0000f0 bf cb 23 bc 82 22 93 bd a0 2d 6d 3e 4f ad 4a bc
       -0.009997307 -0.07184316 0.23161936 -0.012370422

sequential_3_1/dense_12_1/MatMul f4 [64, 5]
000000 65 5d 96 be 34 ed 03 bd 4e 1d a9 3e e5 29 8f bd
       -0.2936813 -0.032208636 0.3303017 -0.069904126
000010 67 97 8f 3e da 9f 8f be e3 d7 d3 be dc 05 83 3d
       0.28045198 -0.28051645 -0.41375646 0.06397602
000020 e5 33 07 be 1c 3d 58 3e 31 6a 1c bf 57 ef f1 be
       -0.1320339 0.21117061 -0.61099535 -0.47252914
000030 b0 5f 84 3e bc 94 1d be ca 2c 81 3d 65 06 a3 bd
       0.25854254 -0.15388769 0.06307371 -0.07960204
000040 ae d8 ad bd b6 19 49 3e 1e 58 ad 3d 3f 46 d0 3d
       -0.08488594 0.19638714 0.08464073 0.101696484
000050 6e 28 68 3e c0 75 92 bc 0b e8 27 be 47 ba b7 3c
       0.22671673 -0.017878413 -0.16397111 0.022427691
000060 90 04 a2 3d 36 6f 07 3e f7 9b 35 3e 40 39 48 ba
       0.079110265 0.13226017 0.17735277 -0.00076379254
000070 37 6c f0 3d 4f 07 20 be 34 a6 8e bd a8 16 be 3d
       0.1173939 -0.15627788 -0.069652945 0.09281665
000080 5d a2 89 be f8 a3 fb 3c 74 e4 16 be b3 41 5d 3e
       -0.26881686 0.030717835 -0.14735585 0.21607094
000090 c8 2d 8f 3e 12 f1 61 bd e7 4b e0 bd 35 6d 9c bd
       0.27964616 -0.055161543 -0.10951977 -0.07638017
0000a0 40 92 85 be fa 10 79 be 7c 05 c8 bd b0 f1 07 bd
       -0.26088142 -0.24322882 -0.09766671 -0.033189476
0000b0 a7 de 55 be ee 73 09 3e ac b6 36 3d 06 81 f8 3c
       -0.20885716 0.1342313 0.044607803 0.03033496
0000c0 7c 8d e6 3c 7e e7 a4 bd f7 f9 ff bd 53 27 4f 3e
       0.028143637 -0.08051966 -0.12498849 0.20229845
0000d0 3f 21 ee bd 88 49 9a be d1 ed 2e 3e 03 82 66 be
       -0.11627435 -0.30134225 0.17082907 -0.22510533
0000e0 f0 2f 4a be c0 0c e0 bb 86 17 60 be 50 6c 38 be
       -0.19744849 -0.0068374574 -0.21883973 -0.18010068
0000f0 77 42 74 be f3 13 48 be 2c 08 e9 3c 77 f2 36 3e
       -0.2385348 -0.1953886 0.02844628 0.1786593
000100 9a 6a a9 be e7 db cc bd f1 e2 a6 be 44 3e 5b 3e
       -0.33089143 -0.100028805 -0.32595018 0.21410471
000110 67 29 fa bd e6 9b 86 be 68 88 9c be a3 37 3f be
       -0.12214928 -0.26290816 -0.3057282 -0.18673567
000120 00 7f 1b 3e 85 85 f2 bd 34 9e 56 3e 75 20 46 3d
       0.15185165 -0.11841873 0.20958787 0.048370797
000130 b3 fb 7e be d5 38 61 3e 29 b1 31 be f4 c6 88 3e
       -0.24900703 0.21994336 -0.17352737 0.2671429
000140 de fa c8 bd c0 1b 44 bc f0 6b 6d 3d 00 8f 25 3b
       -0.09813474 -0.011969507 0.057964265 0.0025262237
000150 5b ae 91 be e2 1a 92 be 60 57 36 3d 14 8d 69 be
       -0.28453335 -0.28536135 0.04451692 -0.22807723
000160 90 97 56 be 28 ec 8d be e8 86 31 be 15 95 8a be
       -0.20956254 -0.27719235 -0.17336619 -0.27066866
000170 d0 e8 a1 bd b8 55 59 3e 96 4a 2f 3e 43 46 bc bd
       -0.079057336 0.21224105 0.17118296 -0.09193089
000180 a1 f5 a9 be fc 3d 04 bf ec ea d9 3d 90 97 d8 3d
       -0.33195212 -0.5165708 0.10640511 0.10575783
000190 d9 d8 97 3c 86 77 6b be a9 01 bd 3d 68 5a a7 bd
       0.018536018 -0.22994813 0.09228832 -0.081715405
0001a0 b8 22 23 3e 5d 5e b9 3e 99 13 7c 3e c3 99 12 be
       0.15931213 0.36204806 0.24616851 -0.14316468
0001b0 1d 8c 24 3e 82 22 b2 bd bb 83 da 3e ec 26 3e 3e
       0.16069074 -0.08697988 0.42678627 0.18569535
0001c0 c1 bd 58 be ee a8 6f be 66 7d 83 be 4d 88 2a bd
       -0.21166135 -0.23404285 -0.2568161 -0.041633893
0001d0 4e 0d 1a be 4a 1c 11 3d c5 1b 80 3b bd ae 8d 3d
       -0.15044138 0.03542737 0.0039095604 0.06918094
0001e0 b6 e4 0c bf 86 83 c7 be f2 4a 35 bd 5e ae 52 3e
       -0.55036485 -0.38967532 -0.044260927 0.20574328
0001f0 3e d1 41 3c a4 f6 9b 3e ba 54 7c bd 6b ab 17 bd
       0.011829672 0.3046161 -0.06160424 -0.03702871
000200 42 7f 8c 3d ae c0 c8 bd df c3 04 3e 29 03 be 3d
       0.0686021 -0.09802376 0.12965344 0.092779465
000210 fb 41 20 bd d4 b3 bc 3d e7 0d 86 3d 0e 01 bd be
       -0.039125424 0.09213987 0.065456204 -0.36914867
000220 54 4b 2a 3e c8 dc f7 bc c5 8b 42 3e 4b fe bd be
       0.16630298 -0.030256644 0.1899863 -0.37108073
000230 d5 c2 79 bc 7f 26 bc 3e a7 1c 4f be 03 87 90 3e
       -0.0152442055 0.3674812 -0.20225774 0.28228006
000240 8d 06 3f 3e 91 e6 23 3d f2 7f 8b 3e 8c 60 15 be
       0.18654843 0.040014807 0.27246052 -0.14587611
000250 5e 10 75 be 57 7c eb 3d 65 51 a8 be e6 b0 83 be
       -0.23932025 0.11498325 -0.328746 -0.257209
000260 05 40 20 bc d3 52 95 be 4c a8 82 3e 02 fa 7d 3e
       -0.009780888 -0.29164752 0.25519025 0.24802402
000270 42 cf 92 bd 57 95 0e 3e 7e 1d c4 be 17 e1 ad be
       -0.071684375 0.13924156 -0.3830375 -0.33960792
000280 0e 18 72 3e a9 1e 60 3e fe e3 68 bf 58 7f 0f be
       0.23641989 0.21886696 -0.9097289 -0.14013422
000290 1f 43 9f be ef 47 16 3e f1 ec 1e be f6 b9 a5 be
       -0.31105897 0.14675878 -0.15520073 -0.3236844
0002a0 6f 21 52 3e c1 75 bb be 69 97 67 3e 35 1e 16 3e
       0.20520566 -0.36613277 0.22616352 0.1465996
0002b0 dc 19 23 be ad 7c d3 3d e5 b4 85 3d e1 7f 79 be
       -0.15927833 0.103265144 0.065286435 -0.24365188
0002c0 7c d2 ad bd 0d 8b ae 3d 03 6f 19 3d be b2 e3 3c
       -0.08487412 0.085226156 0.037459385 0.027795192
0002d0 93 ab 4a be 77 29 18 bc f6 f0 0b 3e af 03 c0 bd
       -0.19792013 -0.00928723 0.13666138 -0.093757026
0002e0 f0 24 8f bd 74 51 1f be 5d b7 3d be 67 fe b8 bd
       -0.06989467 -0.15558416 -0.18526979 -0.090328984
0002f0 1c 15 bb bd 1d 02 7b 3e c9 4e bf bc 8f 22 08 be
       -0.09134886 0.24512525 -0.023352997 -0.13294433
000300 44 24 2c 3e ab 87 92 bd 9f d0 44 be 7a b0 a2 3e
       0.16810709 -0.07154783 -0.19220208 0.31775266
000310 4b f8 e8 3c c3 df 59 be 0b 67 03 bc 8b 62 18 3e
       0.028438708 -0.21276765 -0.008020173 0.14881341
000320 ab d3 8b 3e 68 cf 92 3c ee 9b 0e bd 18 d3 8c 3e
       0.27309927 0.017921165 -0.034816675 0.27504802
000330 7c c6 c1 3d d2 67 6c be de f1 c9 3d 8a 55 2c 3e
       0.09461686 -0.2308648 0.09860586 0.16829506
000340 ff b3 1a be f4 61 76 3d 2c da 8c 3e 29 0a c6 3d
       -0.15107726 0.06015201 0.27510202 0.09669907
000350 7e eb 08 be 4a e4 52 3e 8c 27 01 3e 20 9d 75 3d
       -0.13371083 0.20594898 0.12612742 0.0599643
000360 6c 71 70 be 41 4b 91 be b9 df 76 be ab a7 28 be
       -0.23480767 -0.28377727 -0.24108781 -0.1647021
000370 be 39 8b 3e a3 63 84 3e 61 46 fc bc 7e 55 e9 3d
       0.2719249 0.25857267 -0.030795278 0.113932595
000380 64 68 1e 3e eb cb 66 be 99 32 41 bd ed 10 34 be
       0.1546951 -0.22538726 -0.047167394 -0.17584582
000390 ef b8 40 be a8 2d 75 3d 1a 2f 83 3e df fd 5f be
       -0.18820547 0.059857994 0.25621873 -0.21874188
0003a0 51 5e 05 3e aa 1c a8 be c6 4f bb be 18 2f 08 bd
       0.1302426 -0.3283437 -0.365843 -0.033248037
0003b0 47 4c b8 3d cd 49 81 3e 4e 3d 5c be 1e 1b 1d 3e
       0.08998924 0.25251618 -0.21507761 0.15342376
0003c0 a2 41 89 3e 3b 02 0b 3d 60 d3 a6 3b 00 94 dc 3d
       0.26807886 0.033937674 0.005091116 0.10770416
0003d0 ba 44 8a 3c d8 5f c1 be 6b be 92 be ce 6f af 3e
       0.016878475 -0.37768435 -0.28660902 0.34264988
0003e0 58 0b 1c be 72 07 ea bd f8 fa bd 3d c6 bd 5b be
       -0.15238702 -0.11427201 0.09276384 -0.21459112
0003f0 5e 86 ea bc e3 6b 4f 3d a1 ed 82 3d bd 48 cd be
       -0.028628524 0.05064 0.0639298 -0.40094557
