services/ml-service/app/ml-models/TF1/tf1_priority_model_optimized.tflite (tflite, 5752 bytes, 5 tensors)

arith.constant f4 [16, 32]
000000 a4 f7 a0 3c 80 db 82 30 ec 78 0b b5 3b e3 52 3c
       0.019649334 9.52113e-10 -5.19575e-07 0.012871559
000010 20 85 cf bc f3 3d f8 3c 6f 09 06 bc 4e b2 26 3f
       -0.025332034 0.030302977 -0.00818096 0.6511582
000020 e6 08 e1 2d 99 af 58 3c 7b 46 13 20 8a 3e e7 bc
       2.558349e-11 0.0132254595 1.2474704e-19 -0.028228063
000030 5d 61 62 3d 59 24 91 bc 49 d4 52 3f c7 41 af 3e
       0.055268634 -0.017717527 0.8235517 0.34229872
000040 e8 63 37 2e b0 06 83 3c 5c 0f 5a 3c f7 a2 8b 3d
       4.1698117e-11 0.0159944 0.013309326 0.068181925
000050 9c c7 0b bc 2b bd 10 3d fc b1 24 3c da 36 85 3c
       -0.008531477 0.035336655 0.0100522 0.016261507
000060 a5 b8 c1 3c 9d 7a 9d 3f 6f 9d e6 3c 49 13 5a ba
       0.023647616 1.2303044 0.028151242 -0.0008318914
000070 fb fe c1 bb 85 64 b7 bb e7 48 e9 3c 1a 3f b9 3c
       -0.0059202886 -0.0055966997 0.028477145 0.022613097
000080 d5 8e 03 3d 09 89 19 31 7f f8 88 b5 d3 0c 9d 3b
       0.032118637 2.2342326e-09 -1.0205111e-06 0.0047927885
000090 3a 6f 3d bd 42 f3 2e 3d ed 5e 51 bc 88 d7 ed 3e
       -0.046248652 0.042712457 -0.01277898 0.464535
0000a0 3f f7 83 2e 12 26 9f 3c 6e f0 1c 20 5c 6c 09 bd
       6.00111e-11 0.019427333 1.3293265e-19 -0.033550605
0000b0 39 a8 57 3d ba d7 85 bc 1d 70 8f 3f c9 d3 93 3e
       0.052650664 -0.016338218 1.1206089 0.28872517
0000c0 79 af 03 31 f3 4d eb 3c ef a4 74 3c 7e d3 85 3d
       1.9162754e-09 0.028723693 0.014931901 0.065344796
0000d0 55 aa 5a bc b6 5d 0e 3d 9f 1c 57 3c 1b 78 a2 3c
       -0.013346274 0.03475734 0.013129382 0.019832661
0000e0 49 fe 9e 3c 97 20 90 3f ca a8 44 3c a9 83 0d 3b
       0.019408362 1.1259946 0.012003133 0.0021593368
0000f0 8b 69 d8 bb 89 d1 2b bc 17 39 24 3d 91 68 dc 3c
       -0.0066043786 -0.010486969 0.040093508 0.02690533
000100 83 67 27 bc b9 69 76 b0 df 8b ce 35 32 91 ef bc
       -0.01021755 -8.964452e-10 1.5388904e-06 -0.02924404
000110 bd d3 dd 3a 66 ed 20 bd c1 fc cc 3c 45 0f 4e bf
       0.0016924065 -0.0392889 0.025022866 -0.8049205
000120 a0 01 59 af 5c 50 9c ba 4d 3e 77 a0 06 ca b9 bb
       -1.9736612e-10 -0.0011925804 -2.0942327e-19 -0.005669835
000130 52 44 a7 bd 36 50 87 3c 64 0f 90 bf 1c da 19 bf
       -0.08167328 0.01651774 -1.1254697 -0.60098433
000140 a0 41 50 2f 74 28 42 bc db 20 27 bc 0e f9 df 3d
       1.8940804e-10 -0.011850465 -0.010200704 0.10936175
000150 e7 ac 7e 3c a3 6f 08 bd 9a d4 9d bc 3a ae 3a bb
       0.015544153 -0.03330959 -0.019266415 -0.0028485195
000160 29 6d 26 bd f9 76 6a bf 26 10 05 bd 1c fb cc bb
       -0.040631447 -0.9158779 -0.032486103 -0.0062555205
000170 02 a0 71 3b c2 c7 f2 3a 44 84 38 bd 30 78 f7 bc
       0.0036869054 0.0018522667 -0.045048013 -0.030208677
000180 4b ea b3 bc 5e c5 24 b0 0c 39 5a 35 a6 ae a0 bc
       -0.021962306 -5.994333e-10 8.129434e-07 -0.019614529
000190 c6 f0 ef bb 3b 8e 30 bd 27 45 f7 3b 29 5c 77 bf
       -0.0073224036 -0.04310439 0.0075460854 -0.96625
0001a0 da c8 5d af 0c 09 6a bc b0 65 8d a0 a5 f2 30 bc
       -2.017119e-10 -0.0142843835 -2.395362e-19 -0.010800038
0001b0 f6 e4 b4 bd 44 42 52 3b 1e cb 9e bf 03 f0 20 bf
       -0.08832733 0.0032082954 -1.2405736 -0.6286623
0001c0 3d 6a 8a 2f 51 5d 99 bc 20 3b f2 bb 34 01 77 3d
       2.517754e-10 -0.018721255 -0.007392302 0.06030388
0001d0 2a f3 56 bb 27 91 50 bd b7 ad 74 bc e6 19 61 bc
       -0.0032798746 -0.050919678 -0.014933995 -0.013739085
0001e0 91 05 07 bd 10 7d 66 bf a7 c8 e4 bc b1 37 00 bc
       -0.032964293 -0.9003458 -0.02792771 -0.007825778
0001f0 63 06 ee 3a 48 d7 b6 3a a1 2e 03 bd c9 13 d4 bc
       0.0018159862 0.0013949657 -0.03202689 -0.02588834
000200 a0 9b 84 3c 46 da db 30 10 19 58 b5 61 e5 87 3c
       0.016187489 1.5996384e-09 -8.050274e-07 0.016588869
000210 22 aa e7 bc f6 6d e4 3c 94 66 48 bc 60 8e 1d 3f
       -0.028279368 0.027884465 -0.012231488 0.6154537
000220 8b 66 25 2e d7 94 16 3c 1d bb 4a 20 10 c8 ad bc
       3.7607733e-11 0.00919076 1.7171976e-19 -0.021213561
000230 bb bc 88 3d 64 9c f0 bb 70 68 97 3f 13 9e d0 3e
       0.066766225 -0.007342862 1.1828747 0.407456
000240 96 e9 f8 2f 31 51 fb 3c 80 20 82 3c 1a 7c 91 3d
       4.527691e-10 0.030678364 0.015884638 0.071037486
000250 2f 9a 36 bc cf 5e 0c 3d a0 03 72 3c 2b 07 47 3c
       -0.011145159 0.034270104 0.014771372 0.012147705
000260 0c ba e5 3c 84 e3 1e 3f ae 87 a7 3c b5 39 8b 3a
       0.028042816 0.6206591 0.02045044 0.0010622056
000270 1c be 01 bc f9 7f 11 bc bb ef cd 3c 0d 4e a6 3c
       -0.007918861 -0.008880609 0.025138726 0.02030089
000280 4b 04 a8 3c a3 db c6 30 df 6d 80 b5 d8 ff 8f 3c
       0.02050986 1.4468821e-09 -9.56872e-07 0.01757805
000290 b0 78 11 bd f2 5f e7 3c fd a8 16 bc cb d1 2c 3f
       -0.035515487 0.028243992 -0.009195563 0.6750762
0002a0 31 66 4b 2e 8d 2d 3b 3c cf 41 22 20 06 92 a8 bc
       4.624762e-11 0.011424434 1.3743708e-19 -0.020577442
0002b0 27 af 87 3d e2 92 09 bc ec dd 8b 3f 45 2d ee 3e
       0.066252045 -0.008396836 1.09271 0.46518913
0002c0 0f 1c 00 af 40 43 eb 3c f3 15 6b 3c e9 40 97 3d
       -1.16515e-10 0.02871859 0.014348495 0.073854275
0002d0 71 49 46 bc f6 aa f8 3c 86 80 86 3c b8 03 3a 3c
       -0.012102471 0.030354958 0.016418707 0.011353426
0002e0 72 76 09 3d 6d eb fe 3e f7 8b b9 3c 04 62 89 39
       0.033560224 0.4978899 0.022649748 0.00026203704
0002f0 47 7e f6 bb 77 5d 13 bc 4e ec c8 3c 58 3e c8 3c
       -0.0075223777 -0.008994452 0.024526741 0.02444379
000300 5b 28 78 3c 7c ef 9a 30 d4 94 ff b4 43 0b 33 3c
       0.01514634 1.127304e-09 -4.7605738e-07 0.010927978
000310 05 02 79 bd 1a 7a bb 3c ff 5b 3f bc d4 ea 45 3f
       -0.06079294 0.022885371 -0.011679648 0.77311444
000320 8e a0 84 ae d2 eb 1a 3c 2b 1e 8c 1f 64 b5 c6 bc
       -6.031185e-11 0.009455638 5.9342215e-20 -0.024256416
000330 ae 99 bb 3d 6b ac 90 bc 0b 60 90 3f 25 ee df 3e
       0.091601714 -0.01766034 1.127931 0.43736377
000340 28 f8 15 af ba f6 5e 3c 3e 19 19 3c e0 fa 98 3d
       -1.3639634e-10 0.013608629 0.009344397 0.074697256
000350 c5 1a 05 bc 39 10 17 3d 22 68 80 3c ec 75 2d 3c
       -0.008124058 0.036880706 0.015674654 0.010587197
000360 0f 9c f9 3c 4c 50 90 3f ae 86 34 3c e5 78 ef 39
       0.030469922 1.1274505 0.011018438 0.00045675706
000370 30 6f dc bb 84 40 d7 bb 8e 4d d3 3c cc 01 91 3c
       -0.006727122 -0.00656897 0.025793817 0.017701052
000380 ed 5d 8c bc 89 26 ac af 62 a5 b1 35 f9 3e 02 bc
       -0.017134631 -3.1314e-10 1.323566e-06 -0.007949584
000390 46 ba 87 3c 79 b1 2a bd 5e 15 c6 3b c9 55 4a bf
       0.016568314 -0.041673157 0.0060450276 -0.7903715
0003a0 c3 8c 3a af 62 86 58 bc d9 fe 69 a0 07 cf a0 3c
       -1.696661e-10 -0.013215633 -1.982019e-19 0.019629968
0003b0 d7 15 b4 bd 04 16 5b 3c 93 dc 9c bf d8 89 34 bf
       -0.08793228 0.013371948 -1.2254814 -0.7052283
0003c0 2e 1d 99 af ba 96 c6 bc 6c 0f 67 bb 37 2e 91 3d
       -2.785127e-10 -0.024241794 -0.0035256995 0.07088893
0003d0 d3 42 5d 3c 9a d2 33 bd a2 71 ed bb 30 87 b5 bc
       0.013504702 -0.043902017 -0.007246212 -0.022159189
0003e0 85 18 3a bd e1 de 89 bf 3c 3f fe bc c4 2a d3 bb
       -0.04543354 -1.0771142 -0.031036012 -0.006444307
0003f0 08 91 bf 3a 1c 89 77 3a 08 9a 0f bc 43 08 41 bc
       0.0014615366 0.0009442733 -0.008764751 -0.011781755

arith.constant1 f4 [16]
000000 9a ee 90 bf 5a 5d 9d bf 21 f5 8c 3f 8f 89 9d 3f
       -1.1322815 -1.2294114 1.1012307 1.2307605
000010 06 5f 65 bf f8 e3 51 bf 9f b1 8c bf b0 02 95 3f
       -0.8959812 -0.8198848 -1.0991706 1.1641445
000020 6e 79 7e 3f 2d 38 9b bf 1d 0c a0 3f 7f 6e 79 3f
       0.99404037 -1.2126518 1.2503697 0.9743423
000030 9b 8f 78 bf 8d d8 9a 3f 71 10 93 bf 39 9d 83 3f
       -0.97094125 1.2097336 -1.1489393 1.0282356

arith.constant2 f4 [1, 16]
000000 07 40 a7 be 63 5e c1 be 5a e1 c8 3e 77 56 b1 3e
       -0.32666036 -0.37767324 0.3923443 0.3463628
000010 1d 2f 7c be fe bd 68 be 3a 78 a3 be 90 be ef 3e
       -0.24627347 -0.22728726 -0.31927663 0.46825075
000020 bb f9 98 3e 13 28 bd be bb cc ec 3e 29 ad c0 3e
       0.2987803 -0.36944637 0.46249947 0.3763211
000030 18 03 94 be c5 44 9b 3e 19 d5 96 be 9c d1 e1 3e
       -0.2890861 0.30325904 -0.29459456 0.44105232

arith.constant4 f4 [32]
000000 b8 01 59 38 0f 34 06 bc 00 04 92 bc 56 56 98 3d
       5.1738432e-05 -0.008191123 -0.017824173 0.07438342
000010 3a a9 14 bd 99 6c c6 3c 72 95 4b 3c 31 ce 38 3d
       -0.0362942 0.024221705 0.012425767 0.045118514
000020 71 98 fc bc de 1b c3 35 56 22 9c bc f2 bb 65 bd
       -0.030834408 1.4536743e-06 -0.019059341 -0.05608744
000030 a8 8b 6e 3c 0a 8f 2c bc 4e 2b 3d 3e 93 20 2d 3d
       0.014559664 -0.01053215 0.1847355 0.042267393
000040 02 44 91 bc 8f 2b 43 bc 76 9b 85 bd 0e 0d 4d 3d
       -0.017732624 -0.011912241 -0.065237924 0.050061278
000050 6b 9f 06 3e 5a d1 b7 3c ba 95 c0 bb 26 b7 81 b4
       0.1314675 0.022438694 -0.005877224 -2.416138e-07
000060 fa 3f ee 3d 1f 24 86 3e c0 97 1a bc 8c c1 a8 3c
       0.11633296 0.26199433 -0.009435594 0.020600103
000070 93 c0 13 3e 81 7d 8f 3d f1 79 90 bc 7d c9 c8 3d
       0.1442893 0.0700636 -0.017636271 0.09804056

priority_model_1/dense_2_1/MatMul f4 [32, 10]
000000 4e 5e ec 3c 2f 6e 08 3c f4 43 b4 bc 0e c4 1a 3c
       0.028853562 0.008327051 -0.022005059 0.009446157
000010 c8 cf b7 3b de 80 93 3a 6d dd 18 b8 22 31 96 ba
       0.0056094863 0.0011253615 -3.6445843e-05 -0.0011458735
000020 e4 1c b1 37 f5 74 9d 3a 2c 01 e8 8d 0c 14 7a 8d
       2.1113497e-05 0.0012013005 -1.4298386e-30 -7.706133e-31
000030 0a a7 c9 8a 0a cf ff 08 22 3f ab 0a 13 55 e2 09
       -1.9418429e-32 1.5395929e-33 1.6490449e-32 5.4487524e-33
000040 65 5c d9 8a 88 e8 7b 89 f2 63 30 8a 4e 81 ef 0a
       -2.0931095e-32 -3.0322362e-33 -8.4928894e-33 2.3063502e-32
000050 45 fa 24 8a dd bc 40 0a 52 23 62 87 dc 34 a3 09
       -7.943383e-33 9.279985e-33 -1.701273e-34 3.929053e-33
000060 90 59 15 89 68 3d cb 08 ef c1 bf 08 90 97 1d 09
       -1.7977335e-33 1.2232055e-33 1.1540988e-33 1.8969452e-33
000070 1a 43 ed 88 a2 94 27 89 9e 83 09 3d ad 27 9d bb
       -1.4279694e-33 -2.017178e-33 0.033572786 -0.0047959895
000080 07 a8 a4 bc 35 9f 20 3c ea db a9 3b 76 83 e5 3a
       -0.020099653 0.009803583 0.0051836865 0.0017510492
000090 2f a4 6d ba 90 c8 0a ba aa 87 68 b8 81 7d a8 3a
       -0.0009065298 -0.00052941684 -5.5439457e-05 0.0012854786
0000a0 ce ac 42 ba ca 02 27 bc 24 ad eb 8e ef 5e e7 8c
       -0.00074262626 -0.010193536 -5.80987e-30 -3.5648321e-31
0000b0 a2 ff 62 8c 64 87 eb 8e a3 7d 8f 8f bc 78 e4 8d
       -1.7487333e-31 -5.806235e-30 -1.4149282e-29 -1.4080651e-30
0000c0 a4 b8 e3 8d c3 31 92 89 f6 ee 8f 3c c5 57 3d ba
       -1.4034406e-30 -3.5195017e-33 0.01757 -0.00072228565
0000d0 a2 c7 f3 bc 47 0a 68 3c 40 99 03 3c 25 cb c6 3a
       -0.029758278 0.014162607 0.008032143 0.0015166743
0000e0 b4 4b 82 3a 37 47 21 bb d9 3c 98 39 69 a6 11 3b
       0.0009940774 -0.0024609098 0.00029037034 0.0022224432
0000f0 fb 3b e3 bc b9 53 c8 3c e6 fe 92 3b 32 99 0e ba
       -0.027738562 0.024453985 0.0044859527 -0.0005439698
000100 52 d4 81 38 2a 09 49 39 7e 4d e6 3a 59 69 a9 3a
       6.190747e-05 0.00019172268 0.0017570702 0.0012925073
000110 15 c4 44 3b 2c c8 ab b9 2c f7 03 3a 5a 27 8f b8
       0.00300241 -0.000327648 0.0005034085 -6.826101e-05
000120 0f 7b 80 bd ad b2 00 3d 86 7a 9a 3c 24 1c 3a 3a
       -0.062734716 0.0314204 0.018857252 0.000709953
000130 52 0f 19 b8 bb 59 9c b9 08 8a ee 3b f6 65 10 3c
       -3.649231e-05 -0.00029821493 0.007279638 0.008813372
000140 73 c9 09 a3 a5 77 9a 91 b6 31 c5 89 41 3f f9 09
       -7.469443e-18 -2.4370653e-28 -4.7472773e-33 6.0004053e-33
000150 89 27 9f 89 2f de fb 09 60 9a 4d 88 a6 be 7a 89
       -3.8315036e-33 6.0634992e-33 -6.187141e-34 -3.0182298e-33
000160 f0 d7 9f 89 ea 39 b0 89 bf da 12 3d 85 43 9b 3c
       -3.8480924e-33 -4.242492e-33 0.035853144 0.018953094
000170 bc 2f 59 bc 87 0d c2 3b c3 38 5a 3b 31 4d bf 39
       -0.01325601 0.0059220227 0.0033297993 0.0003648787
000180 92 be a0 ba a2 96 74 3a f2 0b ca b8 b7 31 41 3a
       -0.0012263826 0.00093303074 -9.6343356e-05 0.0007369774
000190 19 d7 3d 08 d1 f9 e5 8c 07 39 e5 89 ec 7c 08 87
       5.7127965e-34 -3.543339e-31 -5.5183373e-33 -1.0268214e-34
0001a0 d0 51 d0 88 29 2e c7 09 90 ee 9e 09 00 04 9d 87
       -1.2537779e-33 4.7950916e-33 3.826146e-33 -2.3625085e-34
0001b0 f4 a0 8c 08 3e 39 69 08 09 0b 25 ba 2e 88 49 bb
       8.463783e-34 7.0183175e-34 -0.0006295895 -0.0030751335
0001c0 27 be c7 8a df 07 6d 09 2a 6b 2e 0a 9e 9c de 8b
       -1.923453e-32 2.8531538e-33 8.3979506e-33 -8.574694e-32
0001d0 e2 1f 57 0b 3e 46 c1 8a 0a fc 40 09 d8 b5 9a 89
       4.143148e-32 -1.8611646e-32 2.3229668e-33 -3.7245156e-33
0001e0 8e 5e 25 3c d9 b2 fd 3a 04 32 6d bd 34 b4 dd 3c
       0.010093344 0.0019355669 -0.057909027 0.027063467
0001f0 f8 4e 7b 3c 1b 14 3b 3b af d1 c8 ba 2a 3f c1 ba
       0.015338652 0.002854592 -0.001532128 -0.0014743556
000200 4a 13 f8 3a 4e e5 74 3b 19 e8 57 bd 0c 20 cf 3c
       0.0018926647 0.0037368122 -0.05271158 0.025283836
000210 37 8f 28 3b 05 c2 54 ba 22 d4 85 ba 20 89 28 3b
       0.0025720128 -0.00081160694 -0.0010210315 0.0025716498
000220 01 35 c7 ba 3e 2a 92 38 d9 d4 94 3a 86 17 4f b9
       -0.0015198292 6.969691e-05 0.0011354937 -0.00019749822
000230 a2 65 c1 3a c2 5e d3 b8 a1 7c ad be c5 05 55 3e
       0.001475502 -0.00010078914 -0.33884147 0.20802982
000240 72 11 0f 3e 66 3b bc 3b 51 2d fc 3b b6 da 21 3c
       0.13971499 0.0057443855 0.007695832 0.009878805
000250 b0 ab 18 3d fe e7 03 3d ba c0 d1 ba 50 02 31 bb
       0.03727311 0.032203667 -0.0016002872 -0.0027009435
000260 e7 4a 10 bd a6 ae 9e 3c 47 62 32 3c 3c 0d dd 3a
       -0.035227682 0.019370388 0.010887689 0.0016864906
000270 3d de 3a 3a b6 97 03 bb e1 6e f9 3b 2a ed 8d 37
       0.0007128453 -0.002007944 0.0076120947 1.6918948e-05
000280 01 95 16 a5 17 38 41 36 83 6f ee 88 61 e2 84 89
       -1.306091e-16 2.879189e-06 -1.435032e-33 -3.199073e-33
000290 1b 22 1f 8a 74 3c fe 09 41 73 55 89 be 53 25 8a
       -7.661986e-33 6.1205126e-33 -2.5693135e-33 -7.960211e-33
0002a0 98 e9 c8 88 ae dc 35 09 39 9a be 3c 22 94 40 bd
       -1.209198e-33 2.1890846e-33 0.023266898 -0.04701627
0002b0 b7 90 0b bc 98 df 20 3b 2d cc 11 3b f9 d8 9d 3a
       -0.008518389 0.0024547335 0.0022246942 0.0012042812
0002c0 b7 b5 83 ba 28 85 6b 3a 8d 9e 88 3a 5c db a8 38
       -0.0010048662 0.00089843804 0.0010423228 8.051723e-05
0002d0 60 8e 40 3d 1f f9 9d bc 29 6f 4f bc 6f 53 a8 3b
       0.04701078 -0.01928383 -0.01266078 0.005136899
0002e0 33 37 0e 3b 05 b4 eb 39 c1 fc 88 ba 4a 21 6c 38
       0.0021700382 0.00044956818 -0.0010451303 5.6297788e-05
0002f0 f4 44 28 ba 40 d4 2d 3a 94 99 b4 bd 69 3f 69 3c
       -0.0006418966 0.0006631054 -0.08818355 0.01423631
000300 26 27 c7 3b 1b 92 70 3a 18 f5 18 3a c6 42 4a 3a
       0.006077665 0.0009177045 0.00058348617 0.00077156385
000310 9a ef 4b 3b e6 55 a0 3a cc da 93 3b 83 97 db b8
       0.0031118155 0.0012232631 0.0045121666 -0.00010470955
000320 39 ca 04 bd ff 7e fb 3c 9d cc 89 3b 7b 2a e5 b9
       -0.032419417 0.030700205 0.0042053 -0.00043709934
000330 90 d5 9c b7 bb 24 d5 b8 4a f4 0b 3b 0c d9 8f 3a
       -1.8696097e-05 -0.00010163473 0.0021355324 0.0010974719
000340 39 d5 3d 3b eb 4b 9f b9 18 15 4e 3c 80 6e 46 39
       0.0028966202 -0.00030383407 0.012578271 0.00018923916
000350 86 9a ce bc 5d d1 3c 3c 5e bd df 3b c2 ac be 39
       -0.025220167 0.0115245255 0.0068279942 0.0003636834
000360 d3 4a 2c 3a f2 38 7f ba de 0a 28 3a f9 6b f7 3a
       0.0006572429 -0.00097359635 0.0006410311 0.0018876783
000370 2a 6a 2d 3d 42 e8 0e bc b1 43 7b bc 46 46 f1 3b
       0.042337574 -0.008722367 -0.015335963 0.0073631136
000380 89 28 7e 3b 86 b7 e0 39 b5 db 72 b9 c5 a3 48 b9
       0.0038781485 0.00042861345 -0.00023160766 -0.00019134495
000390 b9 89 07 b9 81 7b 8f 3a 37 ad 0d 3d 3d b8 65 3c
       -0.00012925909 0.0010946841 0.03458902 0.014020977
0003a0 95 44 6a bc 52 87 cf 3b fd 06 6d 3b 90 df 66 3a
       -0.014298578 0.00633327 0.0036167495 0.0008807117
0003b0 c9 5f 6a ba 7b 7c a0 38 ff 29 62 37 dc c3 51 3a
       -0.00089406647 7.652581e-05 1.3480428e-05 0.00080019026
0003c0 93 9e af 3c 73 40 8b bb 79 b8 0d bd f4 a7 80 3c
       0.021437919 -0.0042496263 -0.034599755 0.015705086
0003d0 68 9e 19 3c 48 04 6b 3a 77 ea 30 3a 70 c8 c6 ba
       0.009376146 0.00089651765 0.0006748805 -0.0015165936
0003e0 d2 3f 08 b9 99 ba 14 3b a0 5f 04 3b 06 32 f1 b8
       -0.00012993746 0.0022694229 0.0020198599 -0.00011501093
0003f0 cd d3 de be 81 5a 8d 3e d8 2f 37 3e 3e 4f bd 3c
       -0.43520966 0.27608112 0.17889345 0.023109075
