services/ml-service/app/ml-models/TF5/tf5_performance_model.tflite (tflite, 5272 bytes, 5 tensors)

arith.constant f4 [1, 16]
00000000: 3763 7dbe f88a 6cbe dfd5 2c3f 076c c7bd
00000010: 68a3 143f e2f3 023f 0900 943e 25ed c83e
00000020: f6a9 b53e a0e5 a03e b2dc 403f 58d3 bdbe
00000030: e091 aebe 56f8 83be 93ad 89be e2bd b4be
-0.24744879 -0.23099887 0.6751384 -0.097374015 0.5806184 0.51153386 0.28906277 0.39243427
0.35481232 0.3142519 0.75336754 -0.37075305 -0.3409567 -0.25775403 -0.2689024 -0.3530112

arith.constant1 f4 [16, 32]
00000000: 7d1c 4bbd e372 c0be e4d6 4d3e b425 75be
00000010: 1275 a13e 6994 153d 733b b23d b883 88be
00000020: e707 a4be 3e8f 783e dbea 323d 1bbe 33be
00000030: baab aebd 1132 01be 2b09 04be e12c d7bd
00000040: 27a5 d9be 8f96 a5be 123e a93c 9d72 55be
00000050: 7efd cbbe 52ac 83be e87b fdbd 5ff7 263e
00000060: d4f6 5c3e 012d 86be f39a 103e 37ec 2abe
00000070: 97d7 6d3d a670 d1bc c28e 91bc 645a 823e
00000080: 8b77 8bbe 056b 893e e8b8 c5bd 59f7 c6bc
00000090: 6ded 093d bc02 28bd 1b74 0ebe 9741 343e
000000a0: f4d0 91bd b0fa c83c d7f0 ba3d 423f 46be
000000b0: 968d 1cbe d50c a8bc 282f 113e eaf3 45be
000000c0: 9ab8 c23d 6868 9f3e 7b52 4c3e a92a b33d
000000d0: 6f6f 93be 25d1 9abd 271b 483c 7e97 8ebe
000000e0: 92a5 bcbd 2d58 20be 24ab af3c 55a8 65bd
000000f0: 2979 bcbe 0099 7dbd 270a b0bd 738b 9b3d
00000100: 99df d03e e484 f4be 970f 1d3e dc93 3a3e
00000110: b7f8 d1be ac0e 4fbd 161c 5f3e 8cda 3a3e
00000120: 9d46 293e 4008 96bc bdf6 f43d 8a1f 7fbe
00000130: 1bb1 4f3d 58a8 df39 fb88 a33e 16f1 1fbe
00000140: 2c8f 13bd e5eb 61be 7c1d 233e f6ae e1bc
00000150: a631 fb3c 3ec2 893d 9317 9abe d2fd 97be
00000160: 7e18 763d 27a7 0c3e fe4b 88bd 1320 37bd
00000170: eaec 1abe 2d02 c4bd 8ad1 bc3b a76a 913b
00000180: 24cf 063e 1fa1 83be 94b1 5bbe 4625 5e3e
00000190: 6c85 9c3e d1c2 bbbe b099 8e3e eb64 41be
000001a0: c7fc 8dbe 2256 473e a6d4 dcbd 0fa3 c73d
000001b0: a9dc 893d 0de6 a1be a240 4a3e 5ebb 853d
000001c0: 451c 97be 2860 36bd 6cca 7c3e 0137 883e
000001d0: 7230 8bbe 76c6 6e3e b9e8 44be e6b0 9abe
000001e0: 8670 363e 993a c7be e2f6 b8be dfad 4abd
000001f0: 0c1f 463d 9683 8dbe 2abe 5d3e 8c6a e93d
00000200: d4bb 063f 2375 06be 60ae 833d 9e13 f73e
00000210: a11a 713d 8c95 503e 5196 5e3e a83a adbd
00000220: af47 243e 5bfe 83be 84ce c93d 189f f53c
00000230: 241d bdbd b4fb 003e e204 4dbe 5cb0 553e
00000240: 490e 5ebe 43e8 5bbe 9b83 b7be 4b1b 58be
00000250: fb5d 1cbe 2d9a bf3d 335c bfbe 0b98 4dbe
00000260: df31 473e a1db 91bd 11cc 5abe 9544 633e
00000270: 7aa0 c9bb 5cb2 04be 9835 1b3e 8e2b 4a3e
00000280: 573d 7b3e 058c cebe 2217 1dbd c2ea 203e
00000290: b2d0 f5bb 63fd 3f3e 74f4 e93d 3a45 823e
000002a0: 4885 11be c275 6a3e e1d8 3b3e c831 4fbe
000002b0: 2017 b33e dc2b dbbe 46b5 bb3e 91df de3c
000002c0: b50e 88be 5efc a2be 0e49 7bbe 75da 0c3e
000002d0: d1b8 9fbd 38ac 2a3d 02cf bdbe 405b 9bbe
000002e0: f247 7ebe 337f fcbd c3e7 323e 405b b63d
000002f0: 4b2a f83d c551 523e 38f3 0d3a ebff 69be
00000300: dc41 233e 1146 e5be c886 bc3e 6468 a23d
00000310: db4b 7cbe 5b6c aa3e 0e6b 1cbe 3b70 81be
00000320: c4a0 ffbd e02c b13d 2ee4 df3e 3693 9ebc
00000330: 0961 c33e a2e6 f63c 5d99 bb3e 5ffc 0c3e
00000340: 6ef6 8ebe 9f6b babd 0c01 d8bd eda2 3d3e
00000350: f4b7 dbbe a74c 22be c90c 85be 3447 afbe
00000360: 84d7 243c ed3e 083d 914e 0bbe 41ac 9a3e
00000370: 235d d03e 57f7 873e fa7c 2ebd fcb4 09be
00000380: 1ce2 0c3f 393c f1be c5f0 b23e 84cb 98bd
00000390: 26f3 df3d 9de6 f53b d705 963e c8e6 84bd
000003a0: 71bb ea3e 0f0c 863e 49a8 d43e eb65 283e
000003b0: aef4 dc3d 3e3d 4d3d 58df 1a3d 5f57 2dbe
000003c0: 52e9 b6be d4af 923d 3807 b2be bbaa d3bc
000003d0: 6ca9 d0be 222a 85be 56c2 1abe 61cb 08bf
000003e0: 2067 be3d 28dc d83d f49e 9dbe c3be c03d
000003f0: 7995 023d 3866 093e 7f20 003e dd11 4fbc
-0.049587715 -0.37587652 0.20101506 -0.23940164 0.3153463 0.036518488 0.08702745 -0.26662993
-0.3203728 0.24273393 0.043681007 -0.17552988 -0.08528848 -0.12616755 -0.12894122 -0.10506607
-0.42508814 -0.3234143 0.02065948 -0.20844503 -0.39841837 -0.25717407 -0.12377149 0.16305302
0.21578532 -0.2620621 0.14121608 -0.16691671 0.05806693 -0.02556641 -0.017768268 0.25459588
-0.27239642 0.26839462 -0.09654409 -0.024287866 0.033673692 -0.041018233 -0.13911478 0.17603146
-0.07119933 0.0245336 0.09127968 -0.19360068 -0.15288386 -0.020513931 0.14178145 -0.19331327
0.09507866 0.31134343 0.19953339 0.08748371 -0.28795955 -0.075594224 0.012213505 -0.27849954
-0.092112675 -0.15658636 0.02144391 -0.056068737 -0.36811188 -0.06191349 -0.085956864 0.07594957
0.4079559 -0.47757638 0.15337978 0.18220466 -0.41010067 -0.0505511 0.21788058 0.18247432
0.16530843 -0.01831448 0.11961124 -0.24914375 0.05070601 0.000426593 0.31940445 -0.1561931
-0.03602521 -0.22062643 0.15929216 -0.027549248 0.030663323 0.06726502 -0.3009611 -0.29685837
0.06008195 0.13735639 -0.06655119 -0.044708323 -0.15129438 -0.095707275 0.0057622837 0.004437763
0.13164955 -0.25708863 -0.2145446 0.21693906 0.30570543 -0.3667207 0.2785163 -0.18886153
-0.27731916 0.19466451 -0.10782747 0.09747898 0.06731541 -0.31620827 0.19751218 0.06529878
-0.29513755 -0.044525295 0.24686593 0.26604465 -0.27185398 0.23317894 -0.19229402 -0.30213088
0.17816362 -0.38911894 -0.36125857 -0.049482223 0.048369452 -0.27639455 0.21654573 0.11397275
0.5263035 -0.13130622 0.06429744 0.48257154 0.058863286 0.20369548 0.21737029 -0.084584534
0.1604297 -0.25779995 0.09853843 0.029983088 -0.09234074 0.12596017 -0.20021394 0.20868057
-0.21685137 -0.2147532 -0.35842595 -0.21104161 -0.15270226 0.093555786 -0.3737503 -0.20077531
0.19452618 -0.07121969 -0.21366908 0.2219413 -0.0061531635 -0.12958664 0.15157163 0.19743177
0.24535118 -0.403412 -0.03835214 0.15714553 -0.007501685 0.18749003 0.11423579 0.2544344
-0.14210999 0.22896484 0.18344451 -0.20233834 0.3497858 -0.428069 0.36661738 0.027206214
-0.2657372 -0.31833166 -0.24539587 0.1375521 -0.07798923 0.041668147 -0.37071997 -0.30343056
-0.24832132 -0.12328949 0.17471223 0.08904123 0.12117442 0.20539005 0.00054149656 -0.22851531
0.15943092 -0.4478002 0.3682158 0.07930067 -0.24638312 0.33285794 -0.15275213 -0.25280938
-0.124818355 0.08651137 0.43728775 -0.019357305 0.3815997 0.030139271 0.36640444 0.13768147
-0.27922386 -0.09102558 -0.10547075 0.18519183 -0.42913783 -0.15849553 -0.25986317 -0.3423401
0.010061149 0.033263136 -0.1360419 0.30209544 0.40696058 0.26555893 -0.042599656 -0.13447946
0.55032516 -0.4711626 0.34949318 -0.074606925 0.10935049 0.007504298 0.2930133 -0.064893305
0.4584613 0.26181075 0.4153464 0.16445129 0.107888564 0.050107233 0.037810653 -0.1692786
-0.35724884 0.07162443 -0.34771132 -0.025838247 -0.4075426 -0.26008707 -0.15113196 -0.5343533
0.09297013 0.105888665 -0.30785334 0.09411385 0.03188083 0.134179 0.12512396 -0.012638536

sequential_1/dense_1_2/BiasAdd/ReadVariableOp f4 [16]
00000000: 1022 97bd 8fd9 84bd 92e1 913d 7d2f bdbd
00000010: b0bd 813d 45a8 823d 5863 b83d 172f ee3d
00000020: 3ca6 863d 3787 ea3d 2137 9d3d 8370 b63b
00000030: 8a80 c9bd dd99 00be 7c01 a4bd d956 85bd
-0.07379544 -0.064868085 0.07123102 -0.09237573 0.06335008 0.06379751 0.09003323 0.116300754
0.065746754 0.114515714 0.07676531 0.0055676117 -0.0983897 -0.12558694 -0.080080956 -0.065107055

sequential_1/dense_1/BiasAdd/ReadVariableOp f4 [32]
00000000: def1 9fbe 7cfe aa3e 2ca6 e7be a993 e3be
00000010: 7d32 8c3c 6ca5 abbe 2d49 16bd 0b42 a8be
00000020: 19d8 8cbe 0000 0000 8f00 dbbe 8a12 e5bc
00000030: 82e2 6cbe 9325 af3b 0d09 90be fb0e 40be
00000040: 7236 d63e 3723 2a3c 05ca 813d d2e1 a0bd
00000050: 5f7a d53e a90f 0cbe a7f5 b83e efd4 b13e
00000060: a892 58be 0973 c7bd 8bcc 403e 8515 d4be
00000070: 422b 2dbe 4763 d1bc c9df 89be a385 15be
-0.31239218 0.3339728 -0.45243967 -0.44448593 0.017113918 -0.33524644 -0.03669088 -0.32862887
-0.2750862 0.0 -0.42773864 -0.027962942 -0.23133281 0.0053450554 -0.28131905 -0.18755715
0.41838413 0.010384372 0.0633736 -0.07855572 0.41694924 -0.13677849 0.36124918 0.34732768
-0.21149695 -0.09738738 0.18828027 -0.41422668 -0.16911033 -0.025560034 -0.26928547 -0.1460176

sequential_1/dense_1/MatMul f4 [32, 7]
00000000: 602e 7f3e 68f0 5fbb 95be b63d f908 6cbd
00000010: 21c4 913d 6a37 5c3d 8020 9a3a 5ee3 aebe
00000020: d7c8 063c 333a 7e3d 1cb6 9e3d 594e e1bd
00000030: a4dd e6bd c7f3 90ba 5135 353e 914e a33c
00000040: 8961 6e3e ea96 24be 40bb cd3d 5654 643e
00000050: de2a 11b9 739b ee3d 1f0b e53d 7277 6b3e
00000060: d4c6 afbd ea3f 1a3e ec32 bf3d 5542 c2ba
00000070: 4a58 8a3e 8a01 b03e 37d6 1abe 3c13 94be
00000080: 0c4b a6be 9c3c 93be 8c2a 5abb 9030 673e
00000090: faf0 f7bd a9dc f53e 1cdd 16be 53a0 74bc
000000a0: 1af4 fbbc d076 e7bb e63d c0be c1ac c1bd
000000b0: f2de 59be 769f adbe 1534 8a3e d0f9 8ebe
000000c0: 20a5 c23d f0e6 b7bd a672 6abd ce77 aa3e
000000d0: a71e 91bd 5999 393e ef87 693e 6625 563b
000000e0: 924c b0bd f5b5 1a3e 26b6 463e 7421 97be
000000f0: 3115 8f3e 0072 1a3e 8349 7ebb eb46 a8be
00000100: d0d6 d3bc 6e99 b8be 3c51 8abe 7d56 15be
00000110: a03c b23d f054 01be ccb0 bb3e 9c90 2dbe
00000120: 41ed f43d 6726 dcbd 4d62 2d3e 9793 103e
00000130: efde 92ba c632 c3be c721 c8be df4d c23d
00000140: 81c3 263e 7b78 573e 7180 0ebe 7eb4 1e3e
00000150: f011 883c 7525 1abd 1490 09bd ba55 b9bd
00000160: 1c97 193e 5fc7 b73e cd37 52ba b984 323c
00000170: c91c 15be 890b a9be d522 14bd ef95 a0be
00000180: d140 71be 41f0 bbbe bcb0 f73d 9fea ff3d
00000190: edd7 b53e d536 17be cf31 ca3d 93e3 0fbe
000001a0: 8a4d 28bc 2f77 b63e 2c8f d43d faff b0bd
000001b0: eebf a13d d54e 833e 967d b2be b530 473c
000001c0: b015 acbe 2789 91bd ed64 9bbe 2a48 063e
000001d0: 08e6 fd3c 404e 873d 6b0c 783b 6606 67be
000001e0: d0eb 5b3e fc96 163e 2566 2c3e e2b8 103d
000001f0: cb5f 9dbe bebc 5b3c e4eb 2c3e ecc2 68be
00000200: 6faa 85be fc3b 54be 7952 b1be 8770 ac3e
00000210: f132 9abc 34ba 5c3e a5d6 e7be 0a46 b4bd
00000220: 02fe b5be a61d debe f8c5 523e b4b6 11be
00000230: 9ece 02be cf31 8dbd cc64 b5be b5f1 933d
00000240: d3ee f83d 76ce 5bbe 1f8c da3a 4711 b6be
00000250: b55e af3d 6236 253e 2069 1abe 674f 94be
00000260: 15c4 8f3e afa1 263e 12da ddbd 4e0b 9b3a
00000270: 524a c4bd 4799 af3d 7d1d 3dbe 33cb 4bbe
00000280: 9a2c e8ba 6cc8 94be 0353 ff3d 014c 9cbe
00000290: 76f0 a23d 368f 07be 3bb4 903d d826 173c
000002a0: c55f 37be 9767 ac3d da41 883e ae48 c5bd
000002b0: c4aa 953e 796c 05be 1c3e a33d 9208 33bd
000002c0: 6cc4 bbbe 4d91 dc3d 5048 843e 0598 a0be
000002d0: 850f 993b 41b7 333e 0ac4 a6be 50c2 943e
000002e0: 6860 bebe 4bc9 113e e418 e63c a036 11be
000002f0: a426 a2bd 070e c93e e653 bbbd a518 c23e
00000300: b541 49be a5c2 76bd 3b41 01ba ba7c 59bb
00000310: 5973 6c3e 7eb5 353e e277 af3d b525 98be
00000320: c58d f6bd aa32 003e db19 72bb 99f7 99be
00000330: 9fe4 ba3d 05f3 523d 5d9a 44bb 0f33 b03e
00000340: 6eb7 36be 5b5e 093e 0125 763e b3be a0bd
00000350: 29af 38be 10aa 3cbe a63f af3e c0cf 163e
00000360: 5ba5 02bc d5a4 51bd caee cf3d c83c b9bc
00000370: d031 42bd a6c8 c23d 2a42 513e 2ce9 4c3c
0.24920034 -0.0034170393 0.089230694 -0.057625744 0.07117487 0.053763784 0.0011758953 -0.34157842
0.008226595 0.06206722 0.07749578 -0.11001272 -0.11272743 -0.001105898 0.1769612 0.019934924
0.23279394 -0.16073194 0.10045481 0.22297797 -0.00013844247 0.11650743 0.11183762 0.22994784
-0.08582845 0.15063444 0.093358845 -0.0014820794 0.27020484 0.34376174 -0.15120779 -0.28920925
-0.3247913 -0.2875718 -0.003328952 0.22577119 -0.121065095 0.48019913 -0.14732784 -0.014930802
-0.030756045 -0.007063724 -0.37547225 -0.09456778 -0.21276453 -0.33910722 0.2699286 -0.27924967
0.09504151 -0.08979595 -0.057238244 0.3329453 -0.070859246 0.18124904 0.22805761 0.00326761
-0.08608355 0.15108474 0.19405422 -0.2951771 0.27945855 0.1508255 -0.003880114 -0.32866606
-0.025859267 -0.36054558 -0.27015102 -0.14583774 0.087029696 -0.12630057 0.36658323 -0.16949695
0.11959315 -0.10749512 0.1693203 0.14118801 -0.0011205355 -0.38124675 -0.3908827 0.09487509
0.16285516 0.21042053 -0.13916184 0.1549854 0.016610116 -0.037633378 -0.03358467 -0.09049554
0.1499905 0.35894296 -0.0008019179 0.010895901 -0.14561762 -0.33016613 -0.03616603 -0.3136439
-0.23559882 -0.36706737 0.12094256 0.12495922 0.355163 -0.1476701 0.098727815 -0.14051656
-0.010272393 0.35637805 0.1037887 -0.08642574 0.07897936 0.25646082 -0.3486144 0.012157609
-0.33610296 -0.07106238 -0.30350438 0.13113466 0.030993477 0.06606722 0.0037849199 -0.22561035
0.21476674 0.14706033 0.1683584 0.035332568 -0.30737147 0.013411699 0.1688686 -0.22730607
-0.26106593 -0.20726007 -0.34633234 0.33679602 -0.018823119 0.21555406 -0.45280948 -0.088024214
-0.35545355 -0.43381995 0.20583332 -0.14229852 -0.1277413 -0.06894266 -0.35428464 0.07223836
0.12154927 -0.21465477 0.001667384 -0.35560057 0.08562986 0.16134027 -0.15079165 -0.2896683
0.28079286 0.16272615 -0.10832609 0.0011828931 -0.09584488 0.08574157 -0.1846828 -0.19901733
-0.0017713488 -0.2905916 0.12467005 -0.30526736 0.079560205 -0.13238224 0.07065626 0.00922557
-0.17907627 0.08418196 0.2661274 -0.09633003 0.29231846 -0.1302966 0.07970831 -0.043709345
-0.36673295 0.107699014 0.2583642 -0.31365982 0.0046710395 0.17550375 -0.3257144 0.290545
-0.37182927 0.14236943 0.02808804 -0.14180994 -0.07917526 0.39268515 -0.09146862 0.37909427
-0.19653971 -0.06024422 -0.00049306796 -0.0033185915 0.23090877 0.17745015 0.08567788 -0.29716268
-0.12038759 0.12519327 -0.003694168 -0.30071715 0.09125637 0.051501293 -0.0029999234 0.34413955
-0.1784341 0.134149 0.24037553 -0.07848873 -0.18035568 -0.18424249 0.34228247 0.14727688
-0.007973994 -0.051182587 0.10152967 -0.02261199 -0.047410786 0.09510927 0.20435396 0.012506764
