services/ml-service/app/ml-models/TF2/tf2_focus_model_optimized.tflite (tflite, 6188 bytes, 6 tensors)

arith.constant f4 [16, 32]
00000000: 6881 203e fc67 27bd 6b7b 89c0 9658 3d41
00000010: 832e 88bf fd8e 9a3f a49a 4cc0 b7db 2cbe
00000020: ce3a 3b40 1144 663e f49d c7be 864a 53bf
00000030: 3876 56bf cd2c dfbd 5593 27c0 5d54 363d
00000040: 8a0b b53f 52a2 1d3e 3e26 34c0 710f 5640
00000050: 3161 c3bd 3a71 f7c0 a2b0 19c0 a3ad 863e
00000060: c0bb a5be b695 95bd 61a1 0bc1 2b80 8dbf
00000070: e9af 14be 2315 63c0 e189 dfbe 9e5b 0340
00000080: 0314 84c0 15e6 ca3e 9756 8c3e 611d 98c0
00000090: 9037 913e 96c9 04bf ae86 c740 f42f 95bf
000000a0: 7466 02c0 72b8 cc3e 8eb9 6bc0 d052 ec40
000000b0: 7cce 2cc0 4909 eabd 100a bec0 e4a2 6a3f
000000c0: b5b9 aa3e 5e5f cdc0 aa7b 3440 cb21 00c1
000000d0: d7c6 85be 3ef2 abc0 649b b340 9c2f 313e
000000e0: 7310 98c0 bff5 1d3e 13de 4f3f 3a9b ea3f
000000f0: 969a 3bbd e775 40c0 d54a c3bf 4cf0 0bc0
00000100: 701a f7c0 5ed3 4dc0 5f93 8241 1003 a63f
00000110: 82e0 42c0 de98 3940 caed 63bf 5c87 85c0
00000120: d411 8f40 472c 3abd 427f 3c40 5e0a 9b41
00000130: 5fe0 87c0 521f fcbe 742f 2fc1 0838 f63c
00000140: 7cf3 a8bf a04c b2bf af7d 7040 0aff aec1
00000150: 7066 113e 5d87 07c1 23d0 0c40 6104 e8be
00000160: 9ff1 403f 7901 1bbe 3a98 a640 cc08 78c0
00000170: f357 eb3e 5912 29c1 9e2b ea3f 5c61 94bf
00000180: 5cf7 3dc0 7850 aa3f c3af d841 3b4b e3bf
00000190: 6364 ffbf e16a 793f 4422 833f 9159 dec0
000001a0: 6c9b b63e 1c48 b4be 5853 18bf d59e bf41
000001b0: 9c29 a1c0 e75d 733e 65f7 34c1 4755 293f
000001c0: b7b7 a5bf 568e 31c0 0af6 7140 1b49 adc1
000001d0: 5135 813d 3de0 d3c0 edc6 403f 2105 1e3c
000001e0: cc64 0640 149c c83d 4875 dd3f a3fe 2ec0
000001f0: 65f1 0e3e 19a3 26c1 3134 92bf 6a23 6ec0
00000200: 27d0 60c0 7578 883d 394d 6141 09b6 c5bf
00000210: c54d 5ec0 d4e8 8540 1774 0840 f436 57c0
00000220: ddc2 62bf 90b3 00be 77b0 adbe 70f8 a541
00000230: 1198 d23f 980b 593e a951 f6bf b15a 0f3f
00000240: cd2b 96c0 8db6 4540 1f4d d440 916a c0c1
00000250: 2bfb 803e 9198 e8bf 19e2 3abf c932 4ebe
00000260: 7cf7 fabf 642b a4be c228 923d 9e7a 8bc0
00000270: f45c 28be cb41 2ec1 6ff9 4840 78ef 28c0
00000280: 0762 34c0 b42b 1140 26ed 3b41 9649 1c40
00000290: 279a 5bc0 7927 5740 7de0 aa3f 18b0 98c0
000002a0: a369 0ac0 12b0 97be 691e 44c0 3b07 7e41
000002b0: 93b3 fc3f 1c9d e5be 7764 eec0 b9c8 7f3f
000002c0: efb7 2bc0 13d2 6740 a0a9 e740 1e6d 07c1
000002d0: 81bf 3bbe 7876 cdc0 f150 c93f 734c 97bd
000002e0: 978b a5bf f219 67be 476f 28c0 5b42 7f3f
000002f0: bdeb 80be 1419 dac0 3d6b 6540 91fb 3ac0
00000300: 7f67 d040 8881 3b40 24d4 0ac0 eb9f b740
00000310: 9fcd 0340 6938 0d40 440b afc0 f96a 023f
00000320: e1d2 06c1 c63f 023e a5d5 14bf 1385 9b40
00000330: 85a3 9a3e c95b 903d 0a8e c23f 1171 d5be
00000340: 9ee3 6ec0 e244 c9be 9a16 66c0 e1ee 1541
00000350: 54a8 63be 1350 4c40 6896 bfc0 1e45 adbc
00000360: a049 f4bf 25c5 5a3e 39bc 4cc1 e6d9 1cc0
00000370: a15d 8cbe 6a97 ae3e 4a38 7bc0 7b7d 58c0
00000380: cf5d 74c0 1b2e 6dbf 68d6 3e41 baf0 96c0
00000390: 1e19 00c0 80a7 ae3f 3be6 9b3f 3382 96bf
000003a0: 5c4e 9640 010d 463c 640a a8c0 cc8d 8041
000003b0: b972 5c40 548b ea3e 7b44 09c0 46de a43f
000003c0: 0b52 1b40 7740 8b3f 898c d040 f745 4fc1
000003d0: c49a 88bc eee5 d2c0 1c1e 8340 c8be 10bf
000003e0: 2fb8 0440 1cf4 70be 96f2 76bf 00e0 47bf
000003f0: 7f63 01bf 37e1 94c0 4f35 cebf 9d22 92c0
0.15674365 -0.04087065 -4.2963157 11.834127 -1.0639194 1.2074887 -3.1969385 -0.1688069
2.9254642 0.22486903 -0.38987696 -0.8253559 -0.8377414 -0.10897217 -2.6183674 0.04451405
1.4144146 0.15393952 -2.814834 3.3446925 -0.09540022 -7.7325716 -2.4014058 0.2630435
-0.32369804 -0.07303946 -8.726899 -1.1054739 -0.1452023 -3.548165 -0.4365988 2.0524669
-4.127443 0.39628664 0.27409813 -4.7535863 0.28362703 -0.51870096 6.2351904 -1.1655259
-2.0375032 0.3998447 -3.6832004 7.385109 -2.7001028 -0.11427552 -5.9387283 0.916548
0.33344808 -6.4178915 2.8200479 -8.00825 -0.26128265 -5.3733206 5.6127186 0.17303318
-4.752008 0.15425776 0.81198233 1.8328621 -0.04580172 -3.0071962 -1.5257212 -2.1865416
-7.721977 -3.2160258 16.321959 1.2969685 -3.0449529 2.8999553 -0.8903471 -4.1727734
4.4709263 -0.045452382 2.9452672 19.380062 -4.246139 -0.49242646 -10.949085 0.030056015
-1.3199306 -1.3929634 3.757671 -21.87453 0.14199233 -8.470548 2.2002037 -0.4531584
0.75368685 -0.1513728 5.2060823 -3.875537 0.45965537 -10.566979 1.8294561 -1.1592212
-2.9682226 1.3305807 27.085821 -1.7757334 -1.995251 0.9742871 1.0244832 -6.9484334
0.35665452 -0.35211265 -0.5950217 23.952555 -5.0363293 0.2376629 -11.310399 0.6614575
-1.294669 -2.7743125 3.780642 -21.660696 0.063089974 -6.621123 0.75303537 0.0096447775
2.0999022 0.097953945 1.7301416 -2.7342918 0.13959272 -10.414819 -1.1422178 -3.7209115
-3.5127046 0.066636 14.081353 -1.5446178 -3.4734967 4.1846714 2.1320856 -3.362729
-0.8857859 -0.12568498 -0.33923694 20.746307 1.6452657 0.21195829 -1.9243671 0.5599776
-4.692847 3.089267 6.634414 -24.052034 0.25191626 -1.817156 -0.7300125 -0.2013656
-1.9606776 -0.32064354 0.0713668 -4.358718 -0.16441709 -10.891063 3.1402242 -2.639616
-2.818483 2.2682924 11.745398 2.4419913 -3.4312837 3.3617842 1.3349758 -4.771496
-2.1626976 -0.29626518 -3.064356 15.876765 1.9742302 -0.44846427 -7.449764 0.99915653
-2.6831014 3.622197 7.239456 -8.46414 -0.18334772 -6.4207115 1.5727826 -0.073876284
-1.2933224 -0.22568491 -2.6317918 0.99710625 -0.25179854 -6.8155613 3.5846703 -2.9216044
6.512634 2.929781 -2.169198 5.738271 2.059425 2.206568 -5.470125 0.5094448
-8.426484 0.1271964 -0.58138496 4.8599944 0.3020288 0.07048757 1.5199597 -0.41687825
-3.7326427 -0.39310366 -3.5951295 9.37082 -0.22232181 3.1923873 -5.98711 -0.021151122
-1.9084969 0.21364267 -12.795953 -2.4507995 -0.27415183 0.34099895 -3.9253106 -3.3826587
-3.8182256 -0.92648476 11.927345 -4.7168856 -2.001533 1.3644867 1.2179636 -1.1758484
4.6970654 0.012088061 -5.2512684 16.069237 3.444502 0.45809424 -2.1448047 1.2880332
2.4268825 1.0879048 6.517155 -12.954581 -0.01667536 -6.5905676 4.0974255 -0.5654111
2.0737417 -0.2353062 -0.96463907 -0.7807617 -0.50542444 -4.652492 -1.6110018 -4.5667253

arith.constant1 f4 [16]
00000000: 908a a6c0 f1d7 f63e d392 bebf b736 16be
00000010: 6984 9fbe a06c 23c0 a258 a5bd dc25 043f
00000020: 8b2f 5ec0 4d6c 193e 9602 64c0 bbfe e63f
00000030: 7832 b940 805d 39bf 1c26 81c0 650e e840
-5.2044144 0.48211625 -1.4888557 -0.1466931 -0.31155708 -2.553505 -0.08073546 0.5162027
-3.4716518 0.1498272 -3.5626578 1.8046488 5.7874107 -0.72408295 -4.035902 7.251757

arith.constant2 f4 [1, 16]
00000000: a2c3 ec3d 9d40 0ebe 4f9a c5be 7f16 873e
00000010: 9c30 96bd 8e89 8d3e 04a1 523d 619a e3bd
00000020: 5853 68be 8770 4b3d 9717 ab3d d169 333d
00000030: 8ac4 85be 8109 acbe f709 0f3e 1def 19bd
0.115607515 -0.13891836 -0.3859429 0.2638435 -0.0733349 0.27644008 0.051423088 -0.1111343
-0.22688043 0.04966786 0.08354109 0.043802086 -0.2612651 -0.33601 0.13968645 -0.03758155

arith.constant3 f4 [1, 16]
00000000: 8c28 1fbd 4f15 c83d 4f32 c83e ba2a 3e3d
00000010: 59c8 a03e 7518 283e 084e acbd f3c1 a83d
00000020: 9663 803e 7d37 073e b160 6fbd 1ad2 a3bd
00000030: a464 793d 9dfc 1d3e e9fb 403e bf9b 0dbe
-0.038857028 0.09769689 0.39100882 0.046427466 0.31402853 0.1641558 -0.08413321 0.08240118
0.25075978 0.13204761 -0.05844182 -0.07999058 0.060886994 0.15428396 0.18846096 -0.13828944

arith.constant6 f4 [32]
00000000: 39c0 1bbe 9f91 4fbd 9331 f6bc f827 9f3e
00000010: 96b6 f1bc 3f45 1bbc 88bb 2e3e 13e5 3bbd
00000020: 3657 16be bcd7 253d 14ff c43d 7be1 55bc
00000030: 4371 29be 38ac e73d 2eab dabd dd01 ec3e
00000040: 6095 383b 1671 7bbe f439 c4bd 1a36 7fbc
00000050: 5050 1fbd 5ec9 45be 60f5 0b3e 209b 38be
00000060: 783e fcb9 6543 45bd 8e66 713d a2a9 4bbd
00000070: acdd c2bd 32e1 b1bc c850 4a3c fa91 f8bd
-0.15210046 -0.050675984 -0.030052936 0.3108518 -0.02950601 -0.009476959 0.17063725 -0.04587276
-0.14681706 0.040488943 0.09618965 -0.013054247 -0.16547112 0.11312145 -0.10677181 0.46095172
0.0028165206 -0.24554858 -0.09581366 -0.015576864 -0.03889495 -0.19315097 0.13667822 -0.18027925
-0.00048111728 -0.048159976 0.058935694 -0.04972232 -0.09514937 -0.021713827 0.012348361 -0.12137218

focus_model_1/dense_2_1/MatMul f4 [32, 9]
00000000: af57 328b 1c2c 938a 491a 908a 4fca 138a
00000010: a04b a48a a2aa d889 6cec 9d07 cfc0 368a
00000020: a1e2 488c 12d2 d0b4 2464 789c 2166 69a2
00000030: 173c 138b 24a4 0a0e f0bd 248b c33a 020a
00000040: 156f 198b e006 3d2a 8f16 c88b d584 cb8a
00000050: 5414 0f8a 2b8b 1c09 b022 278a b902 b988
00000060: 65b7 3189 0fbb b389 a6b2 cc8b c68f 82b7
00000070: 41f3 bbb9 da35 0b39 f80f 453e 897f b039
00000080: b2dc d03b f28e d7bd a7db 123e 10d7 b6b8
00000090: 2065 d7b6 0684 fdac 462c ebb1 23e8 4d8c
000000a0: 70a3 18a9 1183 c38b 71f9 1c8b 5e8d 578c
000000b0: a6c5 6d36 8be2 c18b 5d0d 328b 2597 298b
000000c0: 905e 4c8a 4e00 488b 8c45 910a 5cc0 820a
000000d0: 421e bd09 41db 558c 3269 c3b7 b0cb 713b
000000e0: 63f5 ac3a 2697 4abe ea06 c038 97c3 1a3e
000000f0: 8f2a b63b e100 00bd f830 7538 e7d0 571a
00000100: 5bcd 408c e043 358c 0711 838a f244 528c
00000110: b3e6 848a 59e0 ac8a c181 898a a5c1 148e
00000120: 1f13 3e8c 3a8e 438c 4688 3b8c 2b76 a08a
00000130: adf5 578c bcc1 c40a b7b7 0609 20ae a38a
00000140: 56a0 64ad fffd 1d3c 26ec 693c 9141 213c
00000150: aeb6 03bc 93dd af3b 494c 2f3b 3471 9a39
00000160: bfd4 933a ffcf a3bb 3b02 afbb 3f62 70bb
00000170: 2fa4 e1bb 8f3d 5dba be43 7dbb 5c9f 40ba
00000180: 8d40 24ba b9c4 97ba baf6 e9ba 9d78 5a8d
00000190: efc2 508c 9fba 348c 4890 ab0a ce17 0209
000001a0: 638c 080a 25ef 108a a4af 0f8a 4651 bc8a
000001b0: 62c5 bfb9 53fa 5cb6 7a95 1cb8 69dd c88c
000001c0: 92ca e2b3 447b c68b cba5 d20b 079a d78b
000001d0: b487 e039 aa41 f03b 0e79 00bc 78f1 3d3c
000001e0: 3075 bdbb 13a5 8ab9 0bc1 aabb 3006 5f3b
000001f0: 5322 1bbc 51bd 44bc c3c8 418c 4638 3f0c
00000200: 8ee8 598c 8dc9 b18a 827d 288b e425 7e89
00000210: 3096 ce88 3eba 7e09 25b0 588c 581d bfb9
00000220: 5c98 913c 7914 ff3b 8050 7dbd fe44 4f3b
00000230: 3335 f03c 50cd 8c3b 9cd2 b6bc 5457 73b9
00000240: acc8 6fb8 b545 c43b 1ecc fb3a b3e7 58bd
00000250: 9bdc a339 b973 0a3e d5d9 cebc 6126 733d
00000260: 7887 0f38 ae6b 398b de25 9d8a 5ba6 508b
00000270: 839b f888 2e7b a08a 1786 4589 78b7 7609
00000280: 4a8d df89 e589 5b0c 9ee3 498b 38d2 3d8b
00000290: a45b 298b 5992 b988 12fd 2b0b 6ce3 ab09
000002a0: 1924 7888 8844 250a 3990 938a f18d 998a
000002b0: 5194 0989 63a5 a58a 8a81 a306 78d4 c68a
000002c0: 80f5 4d09 aaf8 d409 26ee b488 2ece 4b8b
000002d0: d15f 663c de68 fbbb 1ac9 f13a 324c fd3b
000002e0: 8fb4 303b bdfb 3039 3f2e f5ba c059 7f3b
000002f0: 5959 9f3b 89c4 9e8a 0f98 ae8a 2eba 9b8a
00000300: d6ac 478a ead8 b78a 8fb3 4f89 c467 2c09
00000310: b361 cc88 ebe2 cf8b f30b 1fb8 193d 8d3b
00000320: 759e af3a 7226 37be 5e24 9736 ca46 273e
00000330: bd76 92bb 2180 e5bb 429f fc36 50eb 523b
00000340: 16d6 c9bc 5762 9b39 6e7f 3f3b acbb 103c
00000350: 4ba2 56bb 1e13 983a 0a35 203a d523 8f3c
00000360: 334c 468c 1a95 1e8b c7c1 5b8c 2093 5a8a
00000370: 8088 1e8b fee3 e38a fca8 548a 5091 0b8a
00000380: 4424 378c 0313 11bc 414b ec3a 249f c13b
00000390: 766d 13bb 0938 1bba b410 ddba 4693 ba39
000003a0: ba09 71bb 2451 8f3c 7e60 87bb aa2c 63bb
000003b0: 127d 9cbb 1322 1b37 1043 a13a 7fe5 23ba
000003c0: 940b acba e560 01ba 80e1 2abb bd98 588c
000003d0: 2e12 920a 723f 498b c9c1 0d8a 23da 978a
000003e0: 7778 4909 b7ac f608 fd11 d089 3981 2c8b
000003f0: 7341 e9bb 6e9b 9c3c 2779 e7ba a28a 98ba
-3.434752e-32 -1.4172177e-32 -1.3876583e-32 -7.1158426e-33 -1.5821073e-32 -5.216057e-33 2.376169e-34 -8.7992445e-33
-1.5475638e-31 -3.8895865e-07 -8.2185745e-22 -3.1631455e-18 -2.8356377e-32 1.7088844e-30 -3.1728144e-32 6.270324e-33
-2.9550297e-32 1.6788957e-13 -7.707114e-32 -1.9598155e-32 -6.889023e-33 1.8843253e-33 -8.0472815e-33 -1.1134923e-33
-2.1391832e-33 -4.326859e-33 -7.884674e-32 -1.5564157e-05 -0.00035848658 0.00013276134 0.19244373 0.00033664357
0.006373965 -0.105253115 0.14341603 -8.718495e-05 -6.419272e-06 -7.20535e-12 -6.8444335e-09 -1.5862482e-31
-3.389254e-14 -7.5308475e-32 -3.0232166e-32 -1.6605539e-31 3.5430799e-06 -7.468176e-32 -3.4291606e-32 -3.2661925e-32
-9.840028e-33 -3.8518828e-32 1.3989153e-32 1.2590902e-32 4.552855e-33 -1.6474902e-31 -2.3294797e-05 0.003689509
0.001319569 -0.19784221 9.156561e-05 0.15113674 0.0055592726 -0.03125084 5.8458158e-05 4.4629708e-23
-1.4852939e-31 -1.3964158e-31 -1.2621246e-32 -1.6198559e-31 -1.2797917e-32 -1.6647388e-32 -1.3241428e-32 -1.8335645e-30
-1.4642822e-31 -1.5065053e-31 -1.4446964e-31 -1.545189e-32 -1.6636928e-31 1.8946988e-32 1.6216046e-33 -1.5761828e-32
-1.2995901e-11 0.009643077 0.014277494 0.009842292 -0.00803916 0.00536699 0.002674835 0.00029457512
0.0011278613 -0.0049991603 -0.005340842 -0.0036679653 -0.0068860273 -0.0008439654 -0.0038645114 -0.0007347965
-0.00062657223 -0.0011579014 -0.001785002 -6.732162e-31 -1.6082398e-31 -1.3922855e-31 1.6520974e-32 1.5659374e-33
6.5745656e-33 -6.978326e-33 -6.918234e-33 -1.8134313e-32 -0.0003657742 -3.2928262e-06 -3.733251e-05 -3.0948136e-31
-1.05607924e-07 -7.6452295e-32 8.1138515e-32 -8.304674e-32 0.00042825716 0.0073320465 -0.007841362 0.011593215
-0.005781792 -0.000264444 -0.005211001 0.0034030788 -0.009468633 -0.012008027 -1.4928594e-31 1.4731039e-31
-1.6787054e-31 -1.7120295e-32 -3.2450045e-32 -3.0591954e-33 -1.2433483e-33 3.0661709e-33 -1.6693041e-31 -0.00036452222
0.017772846 0.007784423 -0.06184435 0.0031626816 0.029322242 0.004296936 -0.022317223 -0.00023206818
-5.716893e-05 0.005989755 0.0019210612 -0.05295534 0.00031254147 0.13520707 -0.025250355 0.059362773
3.4220022e-05 -3.5710713e-32 -1.5132794e-32 -4.0184495e-32 -1.4962518e-33 -1.5453775e-32 -2.3776061e-33 2.969744e-33
-5.3818165e-33 1.6912642e-31 -3.8882432e-32 -3.6558227e-32 -3.261716e-32 -1.1168689e-33 3.312379e-32 4.138062e-33
-7.467222e-34 7.95735e-33 -1.4209836e-32 -1.4786756e-32 -1.6560513e-33 -1.5951134e-32 6.1504126e-35 -1.9146628e-32
2.4791411e-33 5.1270986e-33 -1.0889344e-33 -3.925149e-32 0.01406093 -0.0076724133 0.0018446774 0.0077300305
0.002696309 0.00016878448 -0.0018705799 0.0038963407 0.004862946 -1.5288775e-32 -1.6812789e-32 -1.499599e-32
-9.614008e-33 -1.7703853e-32 -2.5001147e-33 2.0752537e-33 -1.2300772e-33 -8.007493e-32 -3.7919683e-05 0.004310262
0.0013398664 -0.1788576 4.5043844e-06 0.16335598 -0.004469721 -0.0070037995 7.5287253e-06 0.0032183714
-0.024638217 0.00029637173 0.002922024 0.008833807 -0.0032750543 0.0011602377 0.0006111419 0.01747314
-1.5276296e-31 -3.0541865e-32 -1.6929459e-31 -1.0523989e-32 -3.0532384e-32 -2.1945066e-32 -1.0239211e-32 -6.719937e-33
-1.410872e-31 -0.00885463 0.0018027799 0.0059088636 -0.0022495664 -0.00059211307 -0.001686594 0.00035586412
-0.003677948 0.017494746 -0.004131376 -0.0034664073 -0.0047756517 9.2466535e-06 0.0012303311 -0.0006252154
-0.0013126009 -0.0004935398 -0.002607435 -1.6685998e-31 1.4066127e-32 -3.8758923e-32 -6.82535e-33 -1.4622825e-32
2.4251137e-33 1.48461915e-33 -5.0091095e-33 -3.322321e-32 -0.007118398 0.019117083 -0.0017660008 -0.0011637995
